examples/models/bump_2.00.model (torch, 2455 bytes, 5 tensors)

network.0.weight f4 [8, 1]
0	0x3f3345a0	0.70028114
1	0x3f47cbd4	0.7804539
2	0xbf7029b8	-0.9381366
3	0xbf6df755	-0.92955524
4	0xb666ba0c	-3.4380964e-06
5	0x9f10abe4	-3.063537e-20
6	0x27f396f3	6.760971e-15
7	0x3f83f91e	1.03104

network.0.bias f4 [8]
0	0xbf22bc98	-0.6356902
1	0xbf31e6e3	-0.6949293
2	0xbf6ef367	-0.9334015
3	0xbf6d2ab8	-0.9264331
4	0xb88c855a	-6.700559e-05
5	0xa088bab8	-2.3162856e-19
6	0xa806b595	-7.477869e-15
7	0xbf6def0b	-0.92942876

network.2.weight f4 [8, 8]
0	0x3e15837e	0.14600942
1	0x3e3136bc	0.17306036
2	0x000001aa	5.97e-43
3	0x0000028a	9.11e-43
4	0x85af33fc	-1.6476017e-35
5	0x9e2b0368	-9.053369e-21
6	0xa79a4081	-4.281352e-15
7	0x3e6b1d89	0.22960486
8	0x3bd6b19f	0.006551936
9	0x3acafab0	0.0015486088
10	0xbba2ec64	-0.0049720276
11	0xbb93f72f	-0.0045155506
12	0x2ee226cb	1.0284181e-10
13	0x9c2183b0	-5.3440634e-22
14	0x254b51f3	1.7635209e-16
15	0xbad4db67	-0.0016239703
16	0xbdb97f04	-0.090574294
17	0xbde2682d	-0.11055026
18	0x3c0333c8	0.008007951
19	0x3bf2df36	0.0074118627
20	0xaeb60cb8	-8.278661e-11
21	0x9d8f050f	-3.7857015e-21
22	0x2695fc2b	1.0407302e-15
23	0xbe1c414c	-0.15259284
24	0x3c943127	0.018089844
25	0x3c836e9e	0.016043957
26	0xbc4d92d7	-0.012547216
27	0xbc42f509	-0.011899241
28	0x2fb5cf31	3.3070927e-10
29	0x9ee1b659	-2.3898219e-20
30	0xa73c10cb	-2.6099345e-15
31	0x3cc65e79	0.02421497
32	0xbc96631d	-0.018357808
33	0xbcbaa856	-0.022785347
34	0x3ae6fc9e	0.0017622893
35	0x3ad2d0aa	0.0016083915
36	0xaf01730f	-1.1773359e-10
37	0x1eeeecbd	2.5297143e-20
38	0x24b40c54	7.808344e-17
39	0xbcff0ea7	-0.031134916
40	0xbf6b1987	-0.91835827
41	0xbf824985	-1.0178686
42	0xbfb4b8e3	-1.4118923
43	0xbfb57529	-1.417638
44	0x37fc0307	3.004215e-05
45	0x9d9983e0	-4.063512e-21
46	0x2781b49d	3.6000514e-15
47	0xbfafbebc	-1.3730083
48	0x368400b2	3.9339875e-06
49	0x37863364	1.5997975e-05
50	0x36389ca1	2.7509307e-06
51	0xb7f733b7	-2.9468776e-05
52	0x29bbb478	8.3357746e-14
53	0x9b09749f	-1.1370057e-22
54	0x22b5dfab	4.9296966e-18
55	0x3767ae0c	1.3809196e-05
56	0x3a886845	0.0010407051
57	0x3aa2d1e7	0.0012422175
58	0xba9d2161	-0.0011988097
59	0xba8a2bcf	-0.001054162
60	0x2e18c146	3.473246e-11
61	0x1c759600	8.125757e-22
62	0xa5cf6e4e	-3.598352e-16
63	0x3b033358	0.0020019617

network.2.bias f4 [8]
0	0xbe43198d	-0.19052716
1	0x3de8802a	0.1135257
2	0x3dc34c3e	0.095360264
3	0x3eabcde6	0.33555526
4	0x3ca3423d	0.019929046
5	0x3eba81d9	0.3642719
6	0x398c37ac	0.0002674436
7	0x3cc02475	0.023454884

network.4.weight f4 [1, 8]
0	0x3ebd3a73	0.36958656
1	0xbdf16c26	-0.11788206
2	0x3e78a98a	0.24283424
3	0xbeadbbe9	-0.33932427
4	0x3d4fca0c	0.050729796
5	0x40345260	2.8175278
6	0xb9298bc2	-0.0001616916
7	0xbcb436f1	-0.021998854
