examples/models/bump_0.00.model (torch, 2455 bytes, 5 tensors)

network.0.weight f4 [8, 1]
00000000: f940 833f 9299 4e3f a10f d7be 9d2f 92bf
00000010: 0fe7 f029 20f4 48be 0a0b 9aa7 d72b a13e
1.0254203 0.8070308 -0.4200411 -1.142078 1.0698223e-13 -0.19624376 -4.2755555e-15 0.3147876

network.0.bias f4 [8]
00000000: 47ad 65bf aaed 35bf a17c a3be b4ad 91bf
00000010: c4a6 96a8 707d 273d e725 d527 e7fa e1bd
-0.89717525 -0.7106577 -0.31931022 -1.1381135 -1.6725668e-14 0.04089111 5.916047e-15 -0.11034184

network.2.weight f4 [8, 8]
00000000: 60b8 803e 8586 4c3e aa01 0000 8a02 0000
00000010: dbda eca8 6400 0000 e979 0ea8 6995 3c3d
00000020: 351d 813c 93b0 cc3b df65 0ebd a612 62bd
00000030: a27a bca7 c10a 08bd 8aab 6ea7 4a7b 043d
00000040: d096 a3bd 656a 81bd c3f5 ce3c 5ed5 2c3d
00000050: 089d 10a8 3136 ce3c 318a 1d27 27ed cfbc
00000060: 7e22 9cbf e973 76bf 27a9 fabe 53ac c2bf
00000070: 39df aaa9 be2c 43be a252 f626 a763 96be
00000080: 5083 b3bc 5133 8ebc dc41 dc3b c814 313c
00000090: dead c8a7 e0ab ce3b 8e13 8025 2134 e5bb
000000a0: 61c0 0bbf 2d40 dcbe a851 3ebe c588 20bf
000000b0: 80ff c928 35ee 30bd d42d 5c27 a8ba 12be
000000c0: 5703 0080 3a01 0000 0b3d 833a c5a9 313b
000000d0: 47e0 12a5 8589 b039 fce9 4623 8800 0080
000000e0: 409b 393b a987 0a3b d69d ddbb 20d0 2bbc
000000f0: 0ad6 2126 f871 bfbb 9629 12a6 8455 bf3b
0.25140667 0.1997319 5.97e-43 9.11e-43 -2.6296177e-14 1.4e-43 -7.9090185e-15 0.046040926
0.015760997 0.006246635 -0.03476512 -0.055193566 -5.231344e-15 -0.03321338 -3.3122126e-15 0.03234414
-0.079877496 -0.06319121 0.025263673 0.04219567 -8.0276565e-15 0.025172325 2.186304e-15 -0.025381638
-1.2198026 -0.96270615 -0.48957178 -1.5208839 -7.5882395e-14 -0.19060037 1.7092077e-15 -0.29372904
-0.0219132 -0.017358454 0.0067217182 0.010808177 -5.569966e-15 0.00630711 2.221771e-16 -0.0069947396
-0.5459042 -0.43017712 -0.18585837 -0.62708694 2.2426288e-14 -0.043195922 3.0555977e-15 -0.14329016
-1.198e-42 4.4e-43 0.0010012699 0.0027109247 -1.273947e-16 0.00033671796 1.078315e-17 -1.9e-43
0.0028321296 0.0021137989 -0.0067632003 -0.010486633 5.6148173e-16 -0.0058424436 -5.0710285e-16 0.0058390517

network.2.bias f4 [8]
00000000: 0687 41be b2d9 003e 65ba 4b3d bc84 bc3e
00000010: 2b56 5f3c b4d9 763e 2d51 1bba 9560 aa3c
-0.18899164 0.12583044 0.049738307 0.36820018 0.013631384 0.24106485 -0.0005924877 0.020798007

network.4.weight f4 [1, 8]
00000000: ec47 c03e 9847 2ebe 72fd 053e 2245 1240
00000010: cdb9 123d 998b 7e3f dc68 3e3b 8a4f fabc
0.37554872 -0.17019498 0.13084963 2.2854695 0.035821725 0.9943176 0.00290542 -0.030555505
