examples/models/intent_0.10.model (torch, 3783 bytes, 9 tensors)

enc.network.weight_ih_l0 f4 [16, 1]
0.3096304 -0.08054366 -0.8210775 -0.41987827 0.10152965 -0.22297364 -0.49396744 0.37278292
-0.25488535 0.42929146 -0.5116393 -0.21507414 -0.35322922 -0.7162711 -0.55499244 0.17302614
00000000: e087 9e3e 13f4 a4bd 2332 52bf 49fa d6be
00000010: c7ee cf3d 3453 64be 4de9 fcbe 67dd be3e
00000020: 5580 82be 17cc db3e cbfa 02bf 653c 5cbe
00000030: 76da b4be 8b5d 37bf fc13 0ebf c42d 313e

enc.network.weight_hh_l0 f4 [16, 4]
0.12349506 0.30875963 -0.44155326 -0.38118663 0.24778432 0.17509261 0.18726328 0.48710775
0.07729984 -0.16639802 0.774716 -0.27399194 -0.75820273 -0.43379962 0.018552087 0.044016536
-0.39313695 -0.25922313 -0.39090785 -0.62083024 -0.2059036 0.18776038 0.5099335 0.3745707
0.11553616 -0.5249916 0.46503773 -0.3514377 -0.81248826 -0.5602179 0.5230392 -0.087660104
-0.21646263 -0.018301573 0.3732578 0.5325457 0.015257665 0.23274295 0.11320015 -0.54620624
0.3268206 -0.5257947 -0.12337558 0.013171351 0.365965 0.3410673 -0.40228152 0.48497984
-0.04788422 -0.16552693 -0.0035410682 -0.25547263 0.5118924 0.29136497 -0.14019425 0.07518386
0.2664774 0.26817763 0.64296 0.38601026 -0.037699956 -0.67861843 0.25291154 -0.34629217
00000000: faea fc3d be15 9e3e 4513 e2be e52a c3be
00000010: 2cbb 7d3e 7a4b 333e f2c1 3f3e 3066 f93e
00000020: 614f 9e3d 3e64 2abe ca53 463f ac48 8cbe
00000030: 9319 42bf fc1a debe 8cfa 973c af4a 343d
00000040: 3f49 c9be e5b8 84be 1325 c8be bbee 1ebf
00000050: 65d8 52be 4244 403e 008b 023f bbc7 bf3e
00000060: 399e ec3d d965 06bf 6d19 ee3e a4ef b3be
00000070: 3bff 4fbf 716a 0fbf e6e5 053f 2487 b3bd
00000080: 61a8 5dbe 2eed 95bc a51b bf3e ea54 083f
00000090: 49fb 793c 2b54 6e3e 7bd5 e73d 2cd4 0bbf
000000a0: 0855 a73e 7b9a 06bf 56ac fcbd a6cc 573c
000000b0: c45f bb3e 60a0 ae3e d8f7 cdbe 474f f83e
000000c0: 3e22 44bd e47f 29be 4411 68bb 4fcd 82be
000000d0: 610b 033f ca2d 953e 158f 0fbe fff9 993d
000000e0: ba6f 883e 944e 893e 0799 243f 23a3 c53e
000000f0: 456b 1abd f0b9 2dbf 9f7d 813e 354d b1be

enc.network.bias_ih_l0 f4 [16]
-0.4360651 0.64671504 0.56252134 -0.114424825 0.13808718 0.120797954 0.14689906 0.14246975
0.17652173 -0.41534042 0.26095662 0.090076074 0.51658493 0.33190832 -0.37622547 -0.027207034
00000000: ed43 dfbe 1e8f 253f 6601 103f 9057 eabd
00000010: ba66 0d3e eb64 f73d b56c 163e 97e3 113e
00000020: 1dc2 343e 80a7 d4be 1b9c 853e ce79 b83d
00000030: e93e 043f e3ef a93e a0a0 c0be 49e1 debc

enc.network.bias_hh_l0 f4 [16]
0.27956927 0.30712 -0.20770177 0.09642946 0.5148749 0.5419369 0.011167176 0.24550577
-0.49205607 -0.12817676 -0.29886863 -0.54845566 0.13109973 0.22002506 -0.08612322 0.5938309
00000000: b423 8f3e d53e 9d3e c6af 54be cf7c c53d
00000010: d7ce 033f 60bc 0a3f 88f6 363c dd65 7b3e
00000020: c6ee fbbe c540 03be 4f05 99be 9767 0cbf
00000030: 023f 063e 404e 613e 5f61 b0bd 4d05 183f

dec.rnn_network.weight_ih_l0 f4 [16, 1]
-0.08731452 0.6166804 0.36446542 -0.19328126 0.1080896 -0.20146438 -0.042429697 0.3624256
-0.039624583 0.24194668 -0.44070634 0.018560296 -0.25675064 -0.32080078 -0.17316505 -0.027662462
00000000: f4d1 b2bd c4de 1d3f 369b ba3e 86eb 45be
00000010: 155e dd3d ae4c 4ebe c3ca 2dbd d98f b93e
00000020: 634d 22bd dfc0 773e 43a4 e1be c30b 983c
00000030: d274 83be 0040 a4be 2e52 31be 639c e2bc

dec.rnn_network.weight_hh_l0 f4 [16, 4]
-0.30775136 -0.16601883 -0.2734212 -0.045168992 -0.5437206 0.14166267 0.27984345 -0.28967968
-0.13279618 -0.07083264 0.08810194 0.2025854 0.42862377 0.5512822 0.26698017 -0.18478227
-0.58978516 0.01477808 0.16677895 -0.16866562 -0.49635875 -0.5558135 -0.22786978 -0.6797602
-0.2863616 0.10548064 0.39813733 -0.64010465 0.15936877 -0.13768749 -0.29431123 -0.38779843
0.0008957226 -0.36116213 -0.2588472 -0.31338957 -0.17987008 0.25196815 -0.38967255 0.030341486
-0.2992312 -0.26884907 0.580789 -0.036193058 0.5231777 -0.040508017 -0.25308865 0.4722416
-0.08196333 0.018959165 0.229812 -0.54100484 -0.2163686 -0.069409005 0.4069435 -0.13393447
0.023986496 0.07731193 -0.0512286 -0.28069246 -0.41998914 0.50753444 0.19645706 0.22322476
00000000: 9691 9dbe d700 2abe ddfd 8bbe 1f03 39bd
00000010: 4631 0bbf 0510 113e a447 8f3e e550 94be
00000020: b9fb 07be b410 91bd ca6e b43d 8c72 4f3e
00000030: 9374 db3e d520 0d3f a0b1 883e 9037 3dbe
00000040: 29fc 16bf c31f 723c 1ac8 2a3e aeb6 2cbe
00000050: bc22 febe cb49 0ebf b256 69be c404 2ebf
00000060: fd9d 92be 3c06 d83d a8d8 cb3e e6dd 23bf
00000070: 9131 233e f3fd 0cbe f6af 96be 848d c6be
00000080: edce 6a3a 3eea b8be 9f87 84be 9974 a0be
00000090: dd2f 38be f801 813e 2983 c7be b58e f83c
000000a0: d534 99be 96a6 89be 97ae 143f 2c3f 14bd
000000b0: f9ee 053f bceb 25bd d694 81be a7c9 f13e
000000c0: 64dc a7bd 4050 9b3c d653 6b3e 4b7f 0abf
000000d0: bb8f 5dbe 4f26 8ebd e65a d03e 1e26 09be
000000e0: 547f c43c b855 9e3d 15d5 51bd ecb6 8fbe
000000f0: d108 d7be c7ed 013f 0a2c 493e 0895 643e

dec.rnn_network.bias_ih_l0 f4 [16]
-0.28274 0.2510775 -0.21410242 -0.2076059 -0.1566833 0.42215952 -0.12701423 0.14328913
-0.010836514 0.354233 -0.47341207 -0.4410495 -0.23154458 0.611635 0.0010524804 0.50283086
00000000: 4cc3 90be 3b8d 803e aa3d 5bbe a496 54be
00000010: 9671 20be 4b25 d83e 0510 02be 63ba 123e
00000020: a28b 31bc 075e b53e 1163 f2be 3dd1 e1be
00000030: 061a 6dbe 1d94 1c3f 62f3 893a 86b9 003f

dec.rnn_network.bias_hh_l0 f4 [16]
0.25075293 0.29209045 0.13464265 -0.031204874 0.19740257 0.13711429 0.16742904 0.21799426
-0.42297298 -0.23014374 0.30829433 -0.50356674 0.022883207 0.7562873 0.36140317 0.095242396
00000000: b062 803e e18c 953e c3df 093e 5da1 ffbc
00000010: e623 4a3e b067 0c3e 8572 2b3e e339 5f3e
00000020: ea8f d8be cdaa 6bbe c1d8 9d3e c0e9 00bf
00000030: 9075 bb3c 0b9c 413f d609 b93e 720e c33d

dec.proj_network.weight f4 [1, 4]
-0.39595157 0.5155373 -0.5511987 -0.21066692
00000000: 2aba cabe 41fa 033f 5c1b 0dbf 12b9 57be
