examples/models/intent_0.00.model (torch, 3783 bytes, 9 tensors)

enc.network.weight_ih_l0 f4 [16, 1]
-1.028466 -0.6549561 -1.484303 -1.423035 -0.90146595 -0.89133483 -1.2346228 -0.7723436
0.62535894 0.89531446 -1.0290762 0.6688132 -1.5519844 -1.0611697 -1.7844548 -0.9864271
00000000: c6a4 83bf 34ab 27bf a4fd bdbf 0326 b6bf
00000010: 79c6 66bf 852e 64bf 1f08 9ebf 4fb8 45bf
00000020: 8617 203f 5433 653f c5b8 83bf 5837 2b3f
00000030: 6da7 c6bf 69d4 87bf 0469 e4bf 7d86 7cbf

enc.network.weight_hh_l0 f4 [16, 4]
-0.07631845 0.015886197 0.8413794 -0.8395815 -0.14917181 0.20712782 0.61518514 -0.024017835
-0.14440425 -0.15507488 1.0869236 -0.71568215 -0.22845484 -0.20878801 0.41189227 0.24566096
-0.039937142 -0.08119911 0.3341677 -0.5896205 -0.48176944 0.32885566 0.81000894 -0.020633997
0.19869977 -0.39160666 0.58538187 -0.5909127 -0.21219644 -0.31165805 0.8761322 0.14853805
-0.3551063 -0.15197116 -0.46639946 0.6707352 0.32257327 0.020948227 -0.095593505 -0.18994398
0.228728 -0.37654144 -0.058331307 -0.2527543 0.0061479555 0.18720801 -0.77994025 0.20024602
0.13668837 -0.20260759 0.4053036 -0.04398018 0.66671723 0.74045557 -0.35783306 0.07723314
-0.031614088 -0.044947624 1.4062116 -0.17012246 0.33229348 -0.3509461 0.3844903 -0.29136577
00000000: d94c 9cbd c523 823c a464 573f d0ee 56bf
00000010: 7fc0 18be 5119 543e c67c 1d3f 0dc1 c4bc
00000020: b5de 13be f3cb 1ebe 5020 8b3f f236 37bf
00000030: 11f0 69be 86cc 55be 8be3 d23e 8c8e 7b3e
00000040: 2195 23bd b84b a6bd 0718 ab3e 5ef1 16bf
00000050: 7caa f6be c55f a83e bf5c 4f3f a108 a9bc
00000060: f477 4b3e ab80 c8be 96db 153f 0e46 17bf
00000070: 064a 59be a591 9fbe 334a 603f 5c1a 183e
00000080: 7ed0 b5be 549e 1bbe e9cb eebe 4db5 2b3f
00000090: 5328 a53e 9e9b ab3c 87c6 c3bd ad80 42be
000000a0: ac37 6a3e 0aca c0be cfec 6ebd 0369 81be
000000b0: ca74 c93b 75b3 3f3e 2aaa 47bf 4b0d 4d3e
000000c0: 09f8 0b3e 5d78 4fbe f483 cf3e 9024 34bd
000000d0: fbad 2a3f 7f8e 3d3f e535 b7be 692c 9e3d
000000e0: c67d 01bd 001b 38bd befe b33f 9534 2ebe
000000f0: 5f22 aa3e 35af b3be eadb c43e e52d 95be

enc.network.bias_ih_l0 f4 [16]
-0.36892372 0.5078173 0.4629817 -0.5650919 -0.22789328 -0.10570876 -0.032442853 -0.3014964
0.5622364 -0.12731814 0.08221712 0.38911512 0.3988017 -0.16280094 -0.22208484 -0.5360847
00000000: 92e3 bcbe 5100 023f f00b ed3e dda9 10bf
00000010: db5c 69be d67d d8bd cce2 04bd bc5d 9abe
00000020: baee 0f3f b05f 02be 7361 a83d 193a c73e
00000030: bd2f cc3e 4ab5 26be 356a 63be d93c 09bf

enc.network.bias_hh_l0 f4 [16]
0.34670988 0.16822074 -0.30724046 -0.35423765 0.14889552 0.3154305 -0.1681748 -0.1984605
-0.10634042 0.15984625 -0.47760814 -0.24941732 0.013315953 -0.27468398 0.068017796 0.084952526
00000000: f583 b13e 0f42 2c3e 9f4e 9dbe a35e b5be
00000010: 1178 183e 1b80 a13e 0436 2cbe 3b39 4bbe
00000020: 02c9 d9bd bcae 233e 0e89 f4be 4167 7fbe
00000030: 282b 5a3c 61a3 8cbe ea4c 8b3d 97fb ad3d

dec.rnn_network.weight_ih_l0 f4 [16, 1]
-0.04073214 0.46716726 0.5642312 -0.24410939 -0.26589563 -0.32185465 -0.06981045 0.043317698
0.08613471 0.06378071 -0.07151972 -0.12310211 -0.34491175 -0.282032 -0.09686523 -0.2754304
00000000: bfd6 26bd 8c30 ef3e 7571 103f d0f7 79be
00000010: 7923 88be 22ca a4be c8f8 8ebd e66d 313d
00000020: 6567 b03d 769f 823d ee78 92bd f61c fcbd
00000030: 4698 b0be 8066 90be 4761 c6bd 3705 8dbe

dec.rnn_network.weight_hh_l0 f4 [16, 4]
0.02087628 0.019353468 -0.5085791 0.2678295 -1.0544541 -0.20779367 0.9355517 -0.40737385
-0.11952379 0.1488907 0.16932505 0.42318705 0.023253215 0.3507769 0.78432745 -0.026614152
-0.60174686 -0.45093468 0.798886 -0.13215645 -0.911919 -0.96512485 0.2362782 -0.9035549
-0.49674526 -0.01930595 0.6494416 -0.6538453 -0.30468303 -0.7056098 0.4727796 -0.43637338
-0.124256164 -0.3424294 -0.5938643 -0.49157852 0.26748982 0.3532489 -0.6745594 0.4651038
-0.7446679 -0.10805104 0.6788453 -0.27253023 0.7716774 0.17642315 -0.81690025 0.28913286
0.386511 -0.2918849 -0.021418212 -0.22656411 -0.52704096 -0.22345345 0.7705115 -0.055743486
-0.19393344 0.15919143 0.18944898 -0.1873962 -0.55072093 -0.052435964 0.6475774 0.27381763
00000000: bb04 ab3c 2a8b 9e3c 3d32 02bf f320 893e
00000010: 5af8 86bf ddc7 54be 5180 6f3f 4e93 d0be
00000020: e4c8 f4bd ce76 183e 8c63 2d3e f9ab d83e
00000030: 877d be3c 0899 b33e afc9 483f ec05 dabc
00000040: 150c 1abf e9e0 e6be cb83 4c3f 0554 07be
00000050: 8673 69bf 6c12 77bf eaf2 713e 604f 67bf
00000060: 6555 febe 8327 9ebc ce41 263f 6862 27bf
00000070: 6aff 9bbe d8a2 34bf 2b10 f23e 556c dfbe
00000080: 047a febd e852 afbe 7e07 18bf 2eb0 fbbe
00000090: 6df4 883e 0add b43e edaf 2cbf 1622 ee3e
000000a0: 8ea2 3ebf dd49 ddbd cec8 2d3f 1589 8bbe
000000b0: a68c 453f 45a8 343e 6020 51bf 3909 943e
000000c0: c5e4 c53e f071 95be 3f75 afbc 6c00 68be
000000d0: 28ec 06bf fbd0 64be 3e40 453f 4853 64bd
000000e0: 7d96 46be 1403 233e eafe 413e cae4 3fbe
000000f0: 0cfc 0cbf 18c7 56bd a2c7 253f d331 8c3e

dec.rnn_network.bias_ih_l0 f4 [16]
-0.51987725 -0.001698999 -0.51979655 -0.5143903 -0.32370028 0.53708816 -0.079268724 0.011157612
0.1799248 0.31645462 -0.5133522 0.1908929 -0.47457308 0.45704737 -0.108145304 0.37405282
00000000: ad16 05bf f2b0 deba 6311 05bf 15af 03bf
00000010: 0bbc a5be 9c7e 093f a457 a2bd 6bce 363c
00000020: 353e 383e 5706 a23e 0d6b 03bf 6e79 433e
00000030: 3efb f2be 1d02 ea3e 497b ddbd da83 bf3e

dec.rnn_network.bias_hh_l0 f4 [16]
0.013614842 0.039314106 -0.17105164 -0.3379888 0.030385908 0.25204256 0.21517457 0.08586274
-0.23221159 -0.2679228 0.26835352 0.12837562 -0.2201457 0.6016996 0.2522058 -0.033534855
00000000: c910 5f3c d407 213d 2928 2fbe de0c adbe
00000010: deeb f83c b90b 813e b956 5c3e ced8 af3d
00000020: e0c8 6dbe 2d2d 89be a265 893e e674 033e
00000030: e06d 61be fc08 1a3f 1e21 813e d85b 09bd

dec.proj_network.weight f4 [1, 4]
-0.23522335 0.30318484 -0.35696793 -0.094098166
00000000: 64de 70be 0b3b 9b3e 80c4 b6be 8ab6 c0bd
