examples/models/stlvae.model (torch, 13959 bytes, 15 tensors)

rnn_encoder.weight_ih_l0 f4 [64, 1]
0.08143445 -0.09314865 -0.23728083 0.029881893 -0.28214502 0.09542216 -0.13801296 -0.008659231
-0.068581566 -0.04237217 0.08699085 -0.012893927 -0.113706924 -0.17991652 -0.1544525 -0.02024885
0.03306308 -0.10782955 0.084188804 -0.037186872 -0.049834576 -0.098107204 0.0044573755 -0.17245308
-0.16939622 -0.0024594313 0.18196267 0.059954643 -0.44226044 0.09239658 -0.07434046 0.30676502
0.36087403 -0.2115671 -0.030532062 -0.32272914 0.40512598 -0.07468012 0.1854146 0.02041033
0.04126522 0.052334946 0.45711055 0.19060981 0.035261095 0.28203866 -0.17593363 0.17382298
-0.017291898 0.019596865 -0.393573 -0.20200619 0.17597504 0.03366258 0.23042533 0.03406905
-0.17754075 -0.4084488 -0.062128607 -0.031156844 -0.52049845 0.093914784 0.016293135 0.23719963
00000000: 1bc7 a63d b8c4 bebd bff9 72be dfca f43c
00000010: 5075 90be b26c c33d 4553 0dbe 72df 0dbc
00000020: 7e74 8cbd 718e 2dbd 4228 b23d 0d41 53bc
00000030: 2ddf e8bd 093c 38be cc28 1ebe ebe0 a5bc
00000040: 276d 073d bdd5 dcbd 2e6b ac3d 4351 18bd
00000050: 571f 4cbd 6eec c8bd 2d0f 923b 8a97 30be
00000060: 3476 2dbe 692e 21bb 6c54 3a3e 0093 753d
00000070: f66f e2be 6b3a bd3d d03f 98bd 4e10 9d3e
00000080: 7bc4 b83e 0ca5 58be 601e fabc c13c a5be
00000090: ac6c cf3e e4f1 98bd 53dd 3d3e 9033 a73c
000000a0: b805 293d 2b5d 563d 650a ea3e 382f 433e
000000b0: f06d 103d 5f67 903e f227 34be a7fe 313e
000000c0: bda7 8dbc 9b89 a03c 6682 c9be b6da 4ebe
000000d0: cd32 343e c6e1 093d 9ef4 6b3e fd8b 0b3d
000000e0: 3ecd 35be 3320 d1be 917a 7ebd a33c ffbc
000000f0: 633f 05bf 6556 c03d 2e79 853c 76e4 723e

rnn_encoder.weight_hh_l0 f4 [64, 16]
-0.15486674 0.1773329 0.18023086 0.18849248 -0.3516971 -0.39068228 0.3606112 0.1492019
-0.04602527 0.08132837 0.16802524 0.06841386 -0.14247972 0.08258255 -0.012506105 0.31327945
-0.17423739 -0.11295714 0.12396897 -0.0571248 0.0998935 -0.35578352 -0.06075874 0.26769537
-0.23696506 0.22143662 0.26079926 -0.13738097 -0.12113712 0.13704413 -0.11613745 0.013306123
0.0018451884 0.2691953 -0.19332524 0.09693566 -0.017052783 -0.042746503 0.22684683 0.27903274
0.014649984 -0.2760449 0.30197665 -0.119499125 -0.15605946 -0.068778686 0.36867544 0.23269315
0.11130499 -0.01863363 0.26727015 0.24515115 0.0622615 -0.093049146 0.052089304 -0.031946454
-0.43549842 0.2734176 0.6013371 -0.03137209 0.14867148 -0.20639251 -0.13533057 0.15429114
0.18958992 0.4241093 0.10966799 0.16745512 0.24282733 0.010403018 0.32231238 0.3434961
-0.14902851 0.2610671 -0.0697226 -0.022198124 -0.111908585 -0.022909855 -0.026731882 0.20123158
0.08675444 0.18510772 0.15827408 0.22311321 0.021247067 0.01571003 0.11355183 0.4330485
0.04197298 -0.043442577 -0.2484514 -0.24599268 -0.52823097 -0.109779395 0.42988884 0.049903303
-0.051965885 0.2564535 0.15030612 0.25278065 -0.1842578 -0.0541432 0.050956838 0.051982094
-0.3037958 -0.0057492014 0.088251784 0.24852423 -0.19483936 0.17727911 0.38568032 0.35288128
0.173841 0.21538097 -0.08864971 0.39664373 -0.23599942 -0.15261962 -0.04530395 0.10973502
-0.19411968 0.27370742 -0.17092259 -0.15751368 -0.29363266 -0.23555279 0.3315798 0.038246773
-0.11271424 0.28682414 0.27061063 -0.094577014 0.03757576 -0.0485895 0.47513288 0.073204495
0.12370742 -0.21470246 0.16690244 -0.14639436 -0.26865897 0.03048597 0.23567319 0.19333696
0.0135670155 0.35588378 0.19421016 0.19065495 -0.27176288 -0.019024543 0.44429782 0.44205216
0.13316697 -0.20858587 -0.039384965 0.17063098 -0.47417942 0.16567841 -0.0062209433 0.024702018
-0.006308817 0.09314477 0.12527223 0.36576065 0.23022874 0.0115292985 0.16731398 0.03178
0.4723564 -0.2968449 -0.1616042 -0.06934247 -0.5518658 0.036704835 0.38142833 -0.015045219
-0.19453116 0.2355532 0.28721666 0.08612245 -0.16856317 -0.24965447 0.026969397 0.077126615
-0.27730328 0.19997731 0.26093915 -0.08095841 -0.3041197 0.122189045 0.18008672 0.09193468
-0.18329482 0.16113295 -0.05944475 0.15865007 -0.05078232 0.27687126 -0.18192314 0.23010455
0.25037888 -0.42141226 -0.06090707 -0.4830914 0.1073724 -0.47632694 0.1981404 0.0007702025
0.048347183 0.39687607 0.035890616 0.011398248 -0.338797 -0.22177961 0.09696445 0.18222892
-0.17342508 0.1653509 0.35518244 0.047917824 -0.3703453 -0.13324177 -0.046831977 0.36544916
-0.25256002 0.1419498 0.1078758 -0.023040306 -0.07215446 0.11824965 0.05246906 -0.078903526
-0.16274093 -0.0018471328 -0.1812277 -0.27760592 -0.07473303 -0.24690472 0.17788577 -0.0794944
0.044438075 0.050725248 -0.18985419 0.3344823 0.009507505 0.14456747 0.07997744 0.050949086
-0.23365366 -0.012839875 0.2752959 -0.20684485 -0.27502432 0.20772728 0.21699767 0.19943638
00000000: 6395 1ebe c196 353e 708e 383e 2c04 413e
00000010: a411 b4be 8207 c8be 08a2 b83e 62c8 183e
00000020: fe84 3cbd 7d8f a63d cf0e 2c3e 911c 8c3d
00000030: 34e6 11be 0a21 a93d 68e6 4cbc 2a66 a03e
00000040: 496b 32be 1356 e7bd 71e3 fd3d b2fb 69bd
00000050: f794 cc3d 4229 b6be 28de 78bd 5e0f 893e
00000060: f8a6 72be 48c0 623e 7b87 853e 99ad 0cbe
00000070: bd16 f8bd 4c55 0c3e 79d9 edbd ed01 5a3c
00000080: 40da f13a f7d3 893e 0df7 45be 3486 c63d
00000090: 47b2 8bbc f516 2fbd 894a 683e 61dd 8e3e
000000a0: 7d06 703c c255 8dbe af9c 9a3e f5bb f4bd
000000b0: 0dce 1fbe d7db 8cbd 07c3 bc3e 1d47 6e3e
000000c0: dff3 e33d 8ea5 98bc a2d7 883e e708 7b3e
000000d0: ea05 7f3d 8d90 bebd 985b 553d 49da 02bd
000000e0: a6f9 debe 64fd 8b3e 3af1 193f 0580 00bd
000000f0: 563d 183e 8f58 53be 1994 0abe 7ffe 1d3e
00000100: dc23 423e db24 d93e 9c99 e03d 5b79 2b3e
00000110: baa7 783e 6c71 2a3c 2106 a53e b9de af3e
00000120: ee9a 18be 96aa 853e b9ca 8ebd d7d8 b5bc
00000130: 5430 e5bd 73ad bbbc d2fc dabc a70f 4e3e
00000140: 50ac b13d e18c 3d3e 9a12 223e ca77 643e
00000150: 540e ae3c 52b2 803c dd8d e83d 88b8 dd3e
00000160: dceb 2b3d d8f0 31bd 0b6a 7ebe 81e5 7bbe
00000170: 253a 07bf 05d4 e0bd 641a dc3e 6867 4c3d
00000180: 2eda 54bd e04d 833e d9e9 193e 776c 813e
00000190: 14ae 3cbe 43c5 5dbd 1eb8 503d 2deb 543d
000001a0: 208b 9bbe cc63 bcbb 5abd b43d 237d 7e3e
000001b0: f883 47be a888 353e e477 c53e dbac b43e
000001c0: 6003 323e d48c 5c3e fb8d b5bd e314 cb3e
000001d0: d5a9 71be 5148 1cbe a290 39bd c1bc e03d
000001e0: 4fc7 46be 6123 8c3e 5506 2fbe 444b 21be
000001f0: 0557 96be c034 71be d4c4 a93e a6a8 1c3d
00000200: b9d6 e6bd 9dda 923e 7a8d 8a3e 98b1 c1bd
00000210: 0ae9 193d c905 47bd 9e44 f33e 3dec 953d
00000220: 515a fd3d f6da 5bbe 79e8 2a3e 67e8 15be
00000230: ab8d 89be b7bd f93c 5054 713e 20fa 453e
00000240: 3048 5e3c 6636 b63e 07df 463e 0d3b 433e
00000250: 8124 8bbe 5cd9 9bbc 017b e33e a954 e23e
00000260: ec5c 083e 8997 55be 2152 21bd e3b9 2e3e
00000270: a5c7 f2be 9aa7 293e 0ed9 cbbb e35b ca3c
00000280: 31ba cebb afc2 be3d 5d47 003e fb44 bb3e
00000290: 15c1 6b3e 62e5 3c3c 5b54 2b3e bf2b 023d
000002a0: b3d8 f13e 0efc 97be 927b 25be 6d03 8ebd
000002b0: 1447 0dbf cf57 163d 934a c33e 3980 76bc
000002c0: 2d33 47be dc34 713e 100e 933e f860 b03d
000002d0: d39b 2cbe 6ca5 7fbe edee dc3c 8ff4 9d3d
000002e0: b2fa 8dbe dac6 4c3e d199 853e 86cd a5bd
000002f0: 94b5 9bbe 403e fa3d a768 383e 4048 bc3d
00000300: a3b1 3bbe 0900 253e 577c 73bd 2a75 223e
00000310: 1f01 50bd 12c2 8d3e 0f4a 3abe 87a0 6b3e
00000320: a931 803e 59c3 d7be b179 79bd c257 f7be
00000330: 10e6 db3d 20e1 f3be 51e5 4a3e 6ae7 493a
00000340: b207 463d 5733 cb3e 0a02 133d b8bf 3a3c
00000350: cd76 adbe 321a 63be 4c95 c63d 389a 3a3e
00000360: 5896 31be bf51 293e 79da b53e 7b45 443d
00000370: e69d bdbe 8870 08be e3d2 3fbd 271c bb3e
00000380: 8c4f 81be 4a5b 113e fded dc3d 06bf bcbc
00000390: b8c5 93bd df2c f23d cce9 563d 2c98 a1bd
000003a0: 8fa5 26be 7e1b f2ba c193 39be 5d22 8ebe
000003b0: a10d 99bd 97d4 7cbe b027 363e f6cd a2bd
000003c0: b304 363d 47c5 4f3d 2369 42be 4441 ab3e
000003d0: 5ec5 1b3c 7f09 143e 36cb a33d fdaf 503d
000003e0: e842 6fbe 575e 52bc 96f3 8c3e 23cf 53be
000003f0: fdcf 8cbe 76b6 543e a334 5e3e 0d39 4c3e

rnn_encoder.bias_ih_l0 f4 [64]
0.036281195 0.2629733 0.34964016 0.19753218 -0.06785814 0.013459794 0.34838083 0.12944584
-0.0043120575 0.1719564 0.14709075 0.2337746 0.104617454 0.25841603 -0.18146397 0.14627448
0.07856635 0.26994312 0.34249386 0.2637225 0.36800388 0.32130012 -0.08102761 0.21579322
0.13560247 0.232678 0.20000052 0.58172107 -0.050134588 -0.059737913 -0.009458681 0.21269247
0.15207236 0.23418352 0.21102262 0.079283684 -0.07131221 -0.13738245 -0.08846771 0.099840544
-0.2247755 0.067624055 0.19138157 0.2085101 -0.3659615 0.27418387 -0.13107035 0.025638772
0.5650445 0.2770033 0.27718955 0.37186188 0.022668201 0.5797596 0.48791564 0.17836393
0.5433767 0.46831092 0.34493056 0.38608152 0.25682262 0.14926799 -0.05639418 0.33574688
00000000: 979b 143d 70a4 863e 0904 b33e e045 4a3e
00000010: 35f9 8abd 7886 5c3c f95e b23e 738d 043e
00000020: 294c 8dbb 5715 303e f59e 163e 9c62 6f3e
00000030: ad41 d63d 1b4f 843e b1d1 39be fac8 153e
00000040: 65e7 a03d fc35 8a3e 5b5b af3e a306 873e
00000050: 016b bc3e 7381 a43e cef1 a5bd e6f8 5c3e
00000060: 60db 0a3e 2443 6e3e f0cc 4c3e aceb 143f
00000070: ed59 4dbd beaf 74bd 95f8 1abc 0ecc 593e
00000080: dbb8 1b3e cecd 6f3e 5016 583e 7c5f a23d
00000090: 230c 92bd fcad 0cbe 8f2e b5bd 3379 cc3d
000000a0: 8c2b 66be 7b7e 8a3d 88f9 433e ac83 553e
000000b0: 4e5f bbbe d461 8c3e 4e37 06be 6708 d23c
000000c0: c2a6 103f 60d3 8d3e caeb 8d3e ae64 be3e
000000d0: aab2 b93c 206b 143f 14d0 f93e 09a5 363e
000000e0: bc1a 0b3f 73c6 ef3e bd9a b03e 7aac c53e
000000f0: 417e 833e b5d9 183e 95fd 66bd 04e7 ab3e

rnn_encoder.bias_hh_l0 f4 [64]
0.0027820102 -0.07935712 0.20372032 -0.0073874462 0.35393676 0.107335985 0.005410862 0.08879505
0.04063733 0.33165228 0.42190823 0.08582582 -0.092945784 0.39553615 -0.17101781 0.21672457
-0.0012318753 -0.12167542 0.219076 -0.016182082 0.2761146 0.12117284 0.17125835 0.022191152
0.4098824 0.43092343 0.15974575 0.17946225 -0.12316017 0.4247678 0.16293018 0.2756527
0.011499949 0.15692934 0.10726354 0.12243451 0.15648696 -0.049071826 0.26358527 0.20640832
-0.05856843 -0.12998943 0.046501424 0.19107118 0.03882344 -0.03223933 -0.026215034 0.14531127
0.4310226 0.37958694 0.47788692 0.3039261 0.32360706 0.14936428 0.15313166 0.2161759
0.32831606 0.30793145 0.6718898 0.58418626 0.07168328 0.36863467 0.29288977 0.45232898
00000000: 6352 363b fc85 a2bd 0f9c 503e 6412 f2bb
00000010: 3337 b53e f8d2 db3d 9a4d b13b 2eda b53d
00000020: 5473 263d 54ce a93e 5b04 d83e 73c5 af3d
00000030: 5c5a bebd b783 ca3e 4b1f 2fbe 0ced 5d3e
00000040: e076 a1ba f630 f9bd 7555 603e 4990 84bc
00000050: e55e 8d3e 7729 f83d 595e 2f3e 38ca b53c
00000060: 1bdc d13e ffa1 dc3e 6494 233e f4c4 373e
00000070: 663b fcbd 2a7b d93e 2bd7 263e 5a22 8d3e
00000080: 486a 3c3c 16b2 203e fdac db3d f2be fa3d
00000090: 1e3e 203e 8aff 48bd a6f4 863e b45c 533e
000000a0: 73e5 6fbd f31b 05be 4778 3e3d 2aa8 433e
000000b0: 5405 1f3d 630d 04bd e9c0 d6bc 7acc 143e
000000c0: ffae dc3e 3859 c23e 98ad f43e 349c 9b3e
000000d0: d3af a53e f3f2 183e 8cce 1c3e 375d 5d3e
000000e0: 0b19 a83e 31a9 9d3e f800 2c3f 3b8d 153f
000000f0: afce 923d afbd bc3e a6f5 953e aa97 e73e

rnn_decoder.weight_ih_l0 f4 [64, 1]
0.30990544 -0.14791751 0.19713527 -0.4315631 -0.105329484 -0.026813028 -0.1630242 0.2772487
0.2900303 0.088234864 -0.15939817 0.12094055 -0.19190143 -0.28601748 0.36239323 0.22255126
0.30712843 -0.15002918 0.28721473 -0.33106762 -0.18490775 -0.14956602 -0.18005782 -0.06451102
0.1973677 0.01582979 -0.15859292 -0.02797694 -0.23731028 -0.38691503 0.35330263 0.2683236
-0.11045906 -0.28540975 0.36532384 0.22216545 0.070632435 -0.10293185 0.28200635 0.13839166
0.06851491 -0.2508187 0.23516898 0.2702667 0.21784109 0.1600562 0.010524073 -0.29845262
0.36367363 -0.06343693 0.3987091 -0.038123053 -0.3229801 -0.1462559 -0.29644728 0.15248388
0.32612327 0.3681434 -0.31992185 0.03708032 -0.3377224 -0.39467847 0.3648496 -0.03220879
00000000: edab 9e3e b077 17be d4dd 493e d7f5 dcbe
00000010: fcb6 d7bd ffa6 dbbc d1ef 26be 8bf3 8d3e
00000020: da7e 943e 7bb4 b43d 4639 23be aeaf f73d
00000030: cf81 44be e270 92be 9b8b b93e 7ae4 633e
00000040: f03f 9d3e 40a1 19be cf0d 933e b281 a9be
00000050: 7558 3dbe d627 19be 1461 38be 5b1e 84bd
00000060: c21a 4a3e 7aad 813c 2f66 22be e52f e5bc
00000070: 7701 73be ba19 c6be 15e4 b43e b661 893e
00000080: 5c38 e2bd 3a21 92be ba0b bb3e 577f 633e
00000090: bda7 903d efcd d2bd 2363 903e 8bb6 0d3e
000000a0: 8c51 8c3d 4f6b 80be 23d0 703e 6660 8a3e
000000b0: bc11 5f3e c6e5 233e 296d 2c3c c8ce 98be
000000c0: 6e33 ba3e 39eb 81bd 9923 cc3e eb26 1cbd
000000d0: a65d a5be 1bc4 15be f0c7 97be bc24 1c3e
000000e0: a1f9 a63e 4b7d bc3e cccc a3be 89e1 173d
000000f0: f3e9 acbe 4c13 cabe 91cd ba3e 5ded 03bd

rnn_decoder.weight_hh_l0 f4 [64, 16]
0.20844512 -0.24663174 0.17869335 0.21284522 0.22965942 0.04186219 0.1881077 0.1730431
0.031849183 -0.015371665 0.35820705 0.1347109 0.5142484 0.21743321 0.08710767 0.14198928
-0.19219482 -0.008990907 0.3282832 -0.3347987 0.10495514 -0.2010018 -0.079351306 0.29493317
0.18047734 -0.06759743 -0.21773095 0.19295937 -0.25630578 -0.07411328 0.054450426 -0.2959371
0.052361656 0.046696223 0.093985036 -0.015042616 0.42588145 0.037786886 -0.25627276 -0.075495996
-0.10315263 -0.13799807 0.043366652 0.2579494 -0.032589532 0.02412027 -0.0631555 -0.25106797
0.1957737 -0.16049133 0.0017162595 -0.03982031 -0.31525046 0.06767927 -0.24274653 0.30522987
0.21700394 -0.2096716 -0.25287688 0.14912102 -0.15146467 0.0991031 -0.03875931 -0.1576947
0.029111568 -0.3538216 -0.08141656 0.065252714 0.19544646 0.09973292 0.06673162 0.05789218
-0.25040203 -0.04370146 0.42617702 -0.04583936 0.026158754 0.20024902 0.045351963 0.011429951
0.2737462 0.0070358 0.115891635 0.15165754 0.05909907 -0.17820679 0.27741387 0.22908705
0.46315238 -0.30473942 -0.08872923 0.14454009 -0.11238318 0.06114427 0.43466866 0.04931499
0.37241936 -0.029959738 0.07743482 0.10587188 0.2879468 -0.026804859 -0.22360195 0.23347452
0.08689595 -0.44909945 -0.14463536 0.4106643 0.18471889 -0.28512833 0.086854696 -0.14932162
-0.21966133 0.18749805 -0.2506593 0.03952556 -0.17646085 -0.24900284 -0.15485044 0.118086934
0.052758772 -0.17707722 -0.043500785 -0.16563842 -0.2975152 -0.32072687 0.31034097 -0.16570894
-0.3023583 -0.04270282 0.21186613 0.31681627 -0.08133958 -0.34979427 -0.11661782 0.121397115
0.104831964 -0.05041113 0.3713956 -0.15002804 0.21995968 -0.10323411 0.18064424 -0.06797291
0.16765393 -0.19914393 0.22988327 0.4184778 0.23650877 0.16114321 0.035428338 0.07599583
0.3865757 -0.17819762 0.4317561 0.32455707 0.5324682 0.1576189 0.37116888 -0.3887119
0.2642037 0.08192617 0.12379389 -0.33564863 -0.1296518 0.05713403 -0.21587226 0.1445265
-0.10592581 -0.11181817 -0.11071453 0.14610107 0.050701845 -0.2989365 -0.0062845224 0.08576438
0.18104525 -0.4619429 0.09563513 -0.14803855 0.44206816 -0.11829691 -0.029293537 0.40203696
-0.118490204 -0.32771894 0.10964076 0.14385442 0.16915844 -0.2389911 0.05056202 -0.12822442
0.3227619 -0.06134527 0.31963968 -0.29219243 -0.08897783 -0.34734708 -0.29542178 0.11162664
0.04776637 0.015744433 0.05885755 -0.10886623 -0.08086182 -0.12592676 0.010264654 -0.25968888
0.05775548 0.17322116 0.20793593 0.045410275 0.028741771 -0.057636954 -0.15057057 0.14146455
0.1441703 -0.44269165 -0.083558604 -0.052506495 -0.17393854 -0.26038632 0.17246534 -0.19150335
-0.080921896 -0.26582813 0.037790544 0.3952969 0.28705236 0.010792389 0.060378227 0.28199703
-0.10819151 0.026476692 0.5185213 -0.00674473 0.3538334 0.32517347 0.081118464 -0.2537289
-0.054419503 -0.08139497 -0.16674799 -0.24063714 0.26554126 0.04029243 -0.30181092 0.40337694
0.26923728 -0.2293516 0.09353871 0.026403343 -0.1795474 -0.36497566 0.06940574 0.015000151
00000000: a372 553e 088d 7cbe 64fb 363e 19f4 593e
00000010: d72b 6b3e b077 2b3d 4e9f 403e 3632 313e
00000020: 4a74 023d 70d9 7bbc ea66 b73e a7f1 093e
00000030: c8a5 033f d0a6 5e3e 8265 b23d a365 113e
00000040: b8ce 44be 994e 13bc bc14 a83e bc6a abbe
00000050: b8f2 d63d 6ad3 4dbe f082 a2bd 7b01 973e
00000060: 0dcf 383e 8570 8abd ddf4 5ebe 2497 453e
00000070: 833a 83be b4c8 97bd 6907 5f3d 1185 97be
00000080: 2d79 563d 8a44 3f3d 3a7b c03d 4e75 76bc
00000090: 220d da3e 6cc6 1a3d 2f36 83be a59d 9abd
000000a0: b041 d3bd 5e4f 0dbe 3ba1 313d f211 843e
000000b0: 9a7c 05bd df97 c53c ac57 81bd fb8b 80be
000000c0: e778 483e d757 24be 1df4 e03a 9f1a 23bd
000000d0: 8268 a1be 6e9b 8a3d 8c92 78be 1747 9c3e
000000e0: 4836 5e3e 27b4 56be 1479 81be 2eb3 183e
000000f0: 8e19 1bbe 91f6 ca3d 15c2 1ebd b87a 21be
00000100: 627b ee3c 1b28 b5be babd a6bd 37a3 853d
00000110: 1e23 483e c640 cc3d 96aa 883d 5a20 6d3d
00000120: b234 80be 4d00 33bd e033 da3e 0ec2 3bbd
00000130: e24a d63c 140e 4d3e fbc2 393d b044 3b3c
00000140: 7628 8c3e 918c e63b 9858 ed3d 1d4c 1b3e
00000150: de11 723d d77b 36be 3109 8e3e cc95 6a3e
00000160: 4f22 ed3e ce06 9cbe acb7 b5bd 5102 143e
00000170: 2729 e6bd 6a72 7a3d e48c de3e 84fe 493d
00000180: c0ad be3e 206e f5bc 2696 9e3d 5bd3 d83d
00000190: c36d 933e dd95 dbbc e9f7 64be f213 6f3e
000001a0: 81f6 b13d 5df0 e5be 4b1b 14be 9742 d23e
000001b0: f326 3d3e 57fc 91be e0e0 b13d c4e7 18be
000001c0: e6ee 60be 7dff 3f3e 6a56 80be 8ee5 213d
000001d0: 27b2 34be 9afa 7ebe 1d91 1ebe 90d7 f13d
000001e0: 9519 583d bb53 35be e12d 32bd 1e9d 29be
000001f0: ea53 98be 5036 a4be 03e5 9e3e 9baf 29be
00000200: b5ce 9abe 27e9 2ebd 6ff3 583e be35 a23e
00000210: 5e95 a6bd 3c18 b3be 53d5 eebd 0d9f f83d
00000220: 24b2 d63d e77b 4ebd 9027 be3e f3a0 19be
00000230: 1c3d 613e 686c d3bd cefa 383e 6235 8bbd
00000240: 79ad 2b3e 63ec 4bbe 8566 6b3e b942 d63e
00000250: 5b2f 723e ba02 253e 4e1d 113d b4a3 9b3d
00000260: 40ed c53e 7079 36be 230f dd3e 582c a63e
00000270: d64f 083f d966 213e d909 be3e 3f05 c7be
00000280: b545 873e e8c8 a73d a787 fd3d 23da abbe
00000290: 71c3 04be 5f05 6a3d 9e0d 5dbe c1fe 133e
000002a0: a2ef d8bd ed00 e5bd 4dbe e2bd 859b 153e
000002b0: bdac 4f3d 340e 99be 65ee cdbb 3ca5 af3d
000002c0: ed63 393e c883 ecbe 5adc c33d 6b97 17be
000002d0: c256 e23e a645 f2bd 00f9 efbc cad7 cd3e
000002e0: feaa f2bd c7ca a7be 568b e03d 934e 133e
000002f0: df37 2d3e 15ba 74be 1f1a 4f3d 434d 03be
00000300: 0c41 a53e 2e45 7bbd d0a7 a33e 3f9a 95be
00000310: 023a b6bd 7ad7 b1be 8641 97be 829c e43d
00000320: aba6 433d 78fa 803c 9d14 713d 42f5 debd
00000330: e29a a5bd f2f2 00be 142d 283c f1f5 84be
00000340: 0391 6c3d e360 313e 28ed 543e 2000 3a3d
00000350: dd73 eb3c ba14 6cbd 2c2f 1abe 15dc 103e
00000360: 61a1 133e 7ba8 e2be c620 abbd 0d11 57bd
00000370: f21c 32be 5b51 85be c19a 303e 7419 44be
00000380: 61ba a5bd a01a 88be 42ca 1a3d 5b64 ca3e
00000390: 87f8 923e 8fd2 303c 294f 773d ea61 903e
000003a0: 8393 ddbd a6e5 d83c d0bd 043f e502 ddbb
000003b0: a729 b53e 237d a63e 7021 a63d c1e8 81be
000003c0: fce6 5ebd 68b2 a6bd fcbf 2abe 9569 76be
000003d0: 06f5 873e ad09 253d f686 9abe 6c87 ce3e
000003e0: 78d9 893e 25db 6abe 3991 bf3d d34b d83c
000003f0: 46db 37be 17de babe 9924 8e3d 31c3 753c

rnn_decoder.bias_ih_l0 f4 [64]
0.0051814313 0.26016012 0.33686584 0.14226817 -0.11882125 -0.10908157 -0.031519774 0.28143698
-0.10086818 0.09564712 0.12830582 0.33553517 -0.116721354 0.22547227 0.10287655 0.39177385
-0.02801242 0.22681294 0.04063553 0.28602913 -0.08057235 -0.030086182 0.0024140503 -0.01377919
0.124763064 0.4138216 -0.19261791 -0.18480963 0.064432085 0.12603086 0.0121585 0.28076747
0.19112942 -0.042841557 0.102459595 -0.08296305 -0.19698931 -0.002731836 -0.008377663 0.0919147
0.2502788 -0.20534346 -0.010570322 0.229133 0.046511944 -0.12639031 0.10828495 -0.20691332
0.07679496 0.3881509 0.37325117 0.17730638 0.12021728 0.08453624 0.13860787 0.15854907
-0.030189196 0.3358493 0.15235841 0.13435867 0.07787271 0.03519582 0.14729105 0.25618908
00000000: ffc8 a93b b533 853e ae79 ac3e bfae 113e
00000010: 8e58 f3bd 2866 dfbd e11a 01bd 8218 903e
00000020: fa93 cebd a3e2 c33d 9a62 033e 44cb ab3e
00000030: 9b0b efbd 34e2 663e f1b0 d23d 9596 c83e
00000040: 4d7a e5bc a741 683e 7171 263d 6972 923e
00000050: 1e03 a5bd 4c77 f6bc 0b35 1e3b 1dc2 61bc
00000060: c783 ff3d 6de0 d33e a13d 45be bc3e 3dbe
00000070: f8f4 833d 3c0e 013e 7234 473c c1c0 8f3e
00000080: 6eb7 433e a17a 2fbd 56d6 d13d 88e8 a9bd
00000090: 91b7 49be 9a08 33bb 7742 09bc c63d bc3d
000000a0: 8b24 803e 8e45 52be 252f 2dbc d7a1 6a3e
000000b0: 4f83 3e3d 766c 01be 80c4 dd3d 16e1 53be
000000c0: ad46 9d3d b7bb c63e c71a bf3e ce8f 353e
000000d0: 7a34 f63d 5621 ad3d 39ef 0d3e b05a 223e
000000e0: 554f f7bc 70f4 ab3e d803 1c3e 5295 093e
000000f0: ba7b 9f3d 7e29 103d 77d3 163e 372b 833e

rnn_decoder.bias_hh_l0 f4 [64]
0.26734936 -0.08835733 -0.046298407 0.14608814 0.24731886 0.10025624 0.22718726 0.115640275
0.08696014 0.37299776 0.18077768 0.054687373 -0.04775462 -0.018487733 0.011853701 0.156691
0.19010076 -0.12130569 0.23968112 -0.07676408 -0.03463331 0.10513566 0.09750672 -0.090588726
-0.1123342 0.24577597 0.12790368 -0.12320067 0.13850579 0.07458615 -0.14316486 0.100040816
0.025773859 0.1879405 0.23089698 0.118214265 0.11966604 -0.29843113 -0.08328409 0.089594916
0.15316236 -0.16803582 0.18280493 -0.028210904 -0.21290505 0.14369175 0.28790218 0.066235274
-0.04307647 0.1979207 -0.028286187 0.33538488 0.1865235 0.079220794 0.010583682 0.3393284
-0.08908261 0.10391313 0.17892304 0.07788421 0.18236767 0.41490123 0.08372137 0.100209214
00000000: 04e2 883e b0f4 b4bd 66a3 3dbd 2198 153e
00000010: 2841 7d3e 2553 cd3d c7a3 683e cfd4 ec3d
00000020: 2818 b23d 90f9 be3e c91d 393e deff 5f3d
00000030: 599a 43bd 9673 97bc 0736 423c 9b73 203e
00000040: c6a9 423e 1e6f f8bd f86e 753e 7c36 9dbd
00000050: a8db 0dbd 5d51 d73d 9ab1 c73d 9586 b9bd
00000060: 790f e6bd b2ac 7b3e 2ff9 023e a250 fcbd
00000070: 76d4 0d3e a0c0 983d cf99 12be 33e2 cc3d
00000080: b323 d33c 7973 403e 4270 6c3e 521a f23d
00000090: 7813 f53d f7cb 98be d990 aabd 8a7d b73d
000000a0: 98d6 1c3e 9511 2cbe 3731 3b3e 8e1a e7bc
000000b0: c803 5abe ee23 133e ea67 933e 5ca6 873d
000000c0: f470 30bd b9ab 4a3e 6fb8 e7bc 91b7 ab3e
000000d0: 0400 3f3e 833e a23d 2e67 2d3c 74bc ad3e
000000e0: f270 b6bd 68d0 d43d 9a37 373e c281 9f3d
000000f0: 97be 3a3e ef6d d43e 1c76 ab3d 7d3a cd3d

fc1.weight f4 [3, 16]
0.76170456 0.057002738 0.24482587 -0.5321194 0.3050716 -0.27895206 0.084963374 0.011689954
-0.6159421 0.7050072 0.30363894 0.608451 0.3808832 0.6887936 -0.28676635 0.20000768
-0.28052044 -0.06954465 0.41700882 0.4102837 -0.7210804 -0.20269477 0.01605151 0.43425247
0.10170627 -0.18061149 0.20672177 -0.40990046 -0.18389212 -0.58608764 0.19309409 0.3404461
-0.1381384 -0.004347858 -0.6403212 -0.13795279 -0.24264082 0.7137674 -0.74099225 -0.57958895
0.7058573 -0.61060154 -0.8460988 -0.6150682 -0.43754166 -0.5614684 0.07242356 -0.80930555
00000000: 12ff 423f b47b 693d a2b3 7a3e fa38 08bf
00000010: 5832 9c3e ced2 8ebe 4701 ae3d 3987 3f3c
00000020: 62ae 1dbf 5a7b 343f 9076 9b3e 72c3 1b3f
00000030: 1f03 c33e c754 303f 0ad3 92be d0ce 4c3e
00000040: 60a0 8fbe 6d6d 8ebd 2e82 d53e b510 d23e
00000050: ba98 38bf 388f 4fbe 757e 833c 5756 de3e
00000060: 604b d03d 38f2 38be dfae 533e 79de d1be
00000070: 374e 3cbe d709 16bf 75ba 453e f44e ae3e
00000080: 2774 0dbe 7a78 8ebb 17ec 23bf 7f43 0dbe
00000090: d676 78be 76b9 363f abb1 3dbf f15f 14bf
000000a0: 10b3 343f 6250 1cbf ee99 58bf 1c75 1dbf
000000b0: 7605 e0be 65bc 0fbf ce52 943d a62e 4fbf

fc1.bias f4 [3]
-0.0228968 0.06688018 -0.04015258
00000000: 1292 bbbc 7af8 883d 0877 24bd

fc2.weight f4 [1, 16]
0.13532324 -0.36589336 0.15711096 0.15891148 -0.19366844 -0.04444031 0.40888482 0.021273535
0.391599 -0.15909277 0.017607342 0.3576114 0.350253 0.4507615 0.28887787 -0.39170706
00000000: 2d92 0a3e 6056 bbbe b2e1 203e b1b9 223e
00000010: 0551 46be 0b07 36bd 5a59 d13e d645 ae3c
00000020: aa7f c83e 37e9 22be 463d 903c d718 b73e
00000030: 5c54 b33e 36ca e63e cde7 933e d48d c8be

fc_to_rnn1.weight f4 [16, 3]
-0.09179777 0.057057653 -0.061726455 -0.38746244 -0.18626827 -0.40983966 -0.47191775 -0.037524603
-0.19693115 0.03784856 -0.13599783 0.542623 -0.04931263 0.7061751 0.1282006 -0.2757289
0.11122405 0.027879188 -0.04085022 -0.13347022 -0.42626625 0.42308694 -0.25121942 0.2726288
0.036075793 -0.40214902 -0.8969523 -0.49744794 -0.21745788 0.6411277 0.5232997 -0.36205047
0.43712825 -0.14999995 0.12277435 -0.9921028 -0.33717537 -0.3869081 0.15414864 -0.4424291
-0.1340105 -0.09272487 0.31261402 -0.6338724 0.29485682 -0.5244576 0.18538241 0.19171847
00000000: 7800 bcbd 49b5 693d e1d4 7cbd 7a61 c6be
00000010: 1cbd 3ebe 81d6 d1be 349f f1be 66b3 19bd
00000020: 52a8 49be 1707 1b3d 0443 0bbe 57e9 0a3f
00000030: 0afc 49bd e4c7 343f 0547 033e 572c 8dbe
00000040: 6fc9 e33d e562 e43c 8f52 27bd 6bac 08be
00000050: 923f dabe da9e d83e d59f 80be 0196 8b3e
00000060: 36c4 133d 7ae6 cdbe aa9e 65bf 7fb1 febe
00000070: 47ad 5ebe f220 243f f8f6 053f ae5e b9be
00000080: 46cf df3e 9699 19be 1e71 fb3d 73fa 7dbf
00000090: 40a2 acbe d218 c6be 24d9 1d3e 1186 e2be
000000a0: 0c3a 09be 89e6 bdbd f20e a03e 7645 22bf
000000b0: 79f7 963e da42 06bf e3d4 3d3e d951 443e

fc_to_rnn1.bias f4 [16]
0.40282604 -0.45097843 0.17469808 -0.33967695 0.3436773 0.29671657 -0.3714354 0.7390142
-0.4982036 -0.2676909 0.28324696 -0.08344206 0.25522095 -0.6560848 -0.13135256 -0.22383957
00000000: 373f ce3e a5e6 e6be 0ee4 323e 23ea adbe
00000010: 79f6 af3e 3ceb 973e c82c bebe 0930 3d3f
00000020: 8b14 ffbe c80e 89be bf05 913e ace3 aabd
00000030: 52ac 823e 2cf5 27bf 4981 06be 3336 65be

fc_to_rnn2.weight f4 [16, 3]
-0.4188782 -0.4514211 -0.40868562 -0.34846097 0.18995188 -0.07927061 0.3628738 0.44245198
-0.44737273 0.11163609 0.31581867 -0.4671767 -0.16669236 0.41946796 -0.42659244 0.5158477
0.04963634 0.10505134 0.48190683 -0.53931785 0.49256176 -0.51538765 0.27423203 -0.025373627
0.45307574 -0.0072904113 -0.56666505 0.07466736 0.38578504 -0.11418373 -0.5455597 -0.08147977
0.045544114 0.14240019 0.18483223 -0.076804936 -0.030227203 -0.121257275 0.22139806 0.13205731
0.2338863 -0.05273872 -0.053756993 0.42442912 0.07236996 -0.5278281 0.11672408 0.53409976
00000000: 3477 d6be ab20 e7be 3e3f d1be 7a69 b2be
00000010: bf82 423e a158 a2bd 98ca b93e 1189 e23e
00000020: 0a0e e5be 76a1 e43d fcb2 a13e c931 efbe
00000030: 67b1 2abe 81c4 d63e 536a dabe 980e 043f
00000040: 7a4f 4b3d 2825 d73d 7ebc f63e bc10 0abf
00000050: 0e31 fc3e 72f0 03bf 2468 8c3e 5adc cfbc
00000060: 8bf9 e73e 67e4 eebb f610 11bf 33eb 983d
00000070: 9e85 c53e 29d9 e9bd cda9 0bbf dede a6bd
00000080: 778c 3a3d 5bd1 113e a944 3d3e e84b 9dbd
00000090: 0a9f f7bc bc55 f8bd 2cb6 623e 083a 073e
000000a0: e47f 6f3e 8e04 58bd 4b30 5cbd c64e d93e
000000b0: b436 943d be1f 07bf 090d ef3d c3ba 083f

fc_to_rnn2.bias f4 [16]
-0.11192598 0.34723175 -0.41561043 -0.08828483 0.38602242 -0.28868195 -0.14723182 0.0049214372
-0.087281145 -0.16225326 0.39833495 -0.10541949 -0.15625918 0.43286616 0.12859407 -0.27281168
00000000: 7339 e5bd 5cc8 b13e e4ca d4be adce b4bd
00000010: bba4 c53e 1fce 93be f0c3 16be 0244 a13b
00000020: 75c0 b2bd b825 26be 8ff2 cb3e 2ce6 d7bd
00000030: 6802 20be a2a0 dd3e 2aae 033e f9ad 8bbe
