examples/models/vae.model (torch, 13959 bytes, 15 tensors)

rnn_encoder.weight_ih_l0 f4 [64, 1]
0.12943493 -0.0906957 -0.1449736 0.017203823 -0.28932482 0.20280965 -0.05594446 0.08044484
0.12281867 0.024592452 0.07280778 -0.02646171 0.13275585 -0.16332103 -0.09265641 -0.010239886
0.026123112 0.010405541 0.11514903 -0.02453615 -0.14942372 -0.08201791 -0.08656501 -0.17473273
0.008094901 0.071506806 0.16336438 0.07719658 -0.19721554 0.056257427 -0.011873445 0.26519054
0.12735265 -0.21857172 -0.17196137 -0.10323181 0.21819773 0.0063679465 0.09633495 -0.12707907
0.2756202 -0.112432756 0.16669096 -0.037285887 -0.07411511 0.075903885 -0.16641068 0.024742117
-0.059713952 -0.068939574 -0.30902487 -0.20422569 -0.0007416796 -0.0032692442 0.11180604 0.055847906
0.051262043 -0.08231149 0.15346164 -0.021045925 -0.10556543 0.018263092 -0.0023088728 0.2206986
00000000: 978a 043e abbe b9bd f673 14be 08ef 8c3c
00000010: 6222 94be 55ad 4f3e 0526 65bd 44c0 a43d
00000020: 5b88 fb3d 1c76 c93c 3f1c 953d 3ac6 d8bc
00000030: 26f1 073e a13d 27be a5c2 bdbd 32c5 27bc
00000040: 2300 d63c 017c 2a3c 41d3 eb3d 0900 c9bc
00000050: 8802 19be 02f9 a7bd ff48 b1bd 23ed 32be
00000060: 7aa0 043c 2972 923d fe48 273e 3e19 9e3d
00000070: dff2 49be 306e 663d d688 42bc 0ec7 873e
00000080: bc68 023e 44d1 5fbe a416 30be 336b d3bd
00000090: 3a6f 5f3e 35aa d03b 424b c53d 0421 02be
000000a0: 171e 8d3e 2543 e6bd 09b1 2a3e 16b9 18bd
000000b0: aac9 97bd 7f73 9b3d 9067 2abe fbaf ca3c
000000c0: 9e96 74bd 3130 8dbd 8238 9ebe 8a20 51be
000000d0: 476d 42ba d140 56bb 91fa e43d c6c0 643d
000000e0: 26f8 513d ed92 a8bd 0c25 1d3e 8168 acbc
000000f0: b032 d8bd 7b9c 953c 7550 17bb d0fe 613e

rnn_encoder.weight_hh_l0 f4 [64, 16]
-0.027678978 0.06009965 0.14742647 0.15842566 -0.24865265 -0.28523687 0.22395767 0.05227412
0.22772187 -0.09006516 0.18638723 0.18020721 -0.013326031 -0.016869152 -0.18659927 0.22797829
-0.13394429 -0.12191917 0.07714038 0.023422329 0.06311773 -0.25577772 -0.13474977 0.24654116
0.07508225 0.014776789 0.13993903 -0.105027065 -0.01129552 -0.0069288206 -0.07524662 -0.06251252
0.12630746 0.17032471 0.01783151 0.0525047 0.10661895 -0.13047539 0.24721482 0.23586266
-0.15367302 -0.2525749 0.32984444 0.12793197 0.08519164 -0.07539786 0.19971056 0.3105442
0.24073538 -0.037448175 0.15740077 0.31473178 0.05464908 0.06153733 -0.04422345 -0.051459417
-0.14123476 -0.011073174 0.31275654 -0.024219 0.05288958 -0.26626793 -0.10618617 0.07461023
0.09910659 0.35730118 -0.034272294 0.18482816 0.07188555 0.19169584 0.25974038 0.29530326
0.11122872 0.10563938 -0.21095362 -0.21369022 -0.07729244 -0.15577915 -0.010350302 0.056934696
0.22474854 0.037642255 0.19024898 0.17007823 0.13937971 0.025429437 0.04398895 0.34554353
0.10715144 -0.14671151 -0.0899268 -0.046365287 -0.29288086 -0.18803765 0.15725762 0.0613023
-0.1508472 0.21921393 0.19930454 0.28353512 -0.26159906 -0.06319061 0.05140253 0.06588944
-0.15223631 -0.1872314 0.0067955735 0.23900351 -0.046770807 -0.062082514 0.38132262 0.3504812
0.28919253 0.15130726 -0.03247369 0.3400237 -0.19869621 -0.13326384 -0.088107675 0.09674587
-0.12299904 0.16770174 -0.07543108 -0.049924534 -0.13947423 -0.27831385 0.21983358 0.04678838
0.039966084 0.0636489 0.23778544 -0.13598533 0.16165125 0.0014953158 0.31559786 -0.09899139
0.21545997 -0.34320945 0.36821425 0.02216781 -0.006908677 -0.034540165 -0.082952455 0.13538846
0.17313458 0.1901659 0.11510454 0.13624391 -0.20487864 0.028133359 0.3146767 0.2996452
0.33249602 -0.33140954 0.04113649 0.33067065 -0.33225647 0.17385283 -0.23426889 -0.056084797
0.23633851 -0.050153043 0.08719312 0.30808613 0.17078748 0.11239941 0.065644845 -0.06831228
0.35835087 -0.17131999 0.013378404 0.17609137 -0.29430163 0.069182366 0.17065814 -0.08511744
-0.10113035 0.06782549 0.18951407 0.082540035 -0.27820888 -0.08801879 -0.15116936 -0.09060778
-0.020072233 0.064095706 0.30949172 0.025389938 -0.076602004 -0.035496462 0.16035745 -0.041528482
0.2718127 0.2902343 0.12166718 0.086257055 0.23511325 0.07595236 -0.0036985907 0.38289595
0.19293536 -0.28681344 0.27171656 -0.06395518 0.09204443 -0.21370941 0.04983454 0.20888165
0.085873455 0.3387772 0.036176667 0.035303757 -0.36464965 -0.08504197 -0.0054143327 0.13143723
-0.034340903 0.041565187 0.27109906 0.16706079 -0.14150815 -0.2663539 -0.070953876 0.27715307
-0.026512707 0.21224383 0.17216216 0.005674931 -0.020275371 0.05478646 0.15614551 0.025676684
-0.10984111 -0.034814127 -0.049983855 -0.01297897 -0.13909891 -0.23674244 0.21684146 0.06443146
0.086144835 0.047506876 -0.08743632 0.36205152 0.025988186 0.073752135 0.107292235 0.07875396
-0.1179517 -0.20827106 0.2962154 -0.12931694 -0.22815451 0.07633091 0.15156406 0.22028981
00000000: 06bf e2bc 0d2b 763d f7f6 163e 563a 223e
00000010: cd9e 7ebe 910a 92be 2955 653e 631d 563d
00000020: ec2f 693e 1574 b8bd 4bdc 3e3e 3d88 383e
00000030: 6d55 5abc 2d31 8abc e113 3fbe 2473 693e
00000040: b128 09be c2b0 f9bd c7fb 9d3d 2fe0 bf3c
00000050: de43 813d 4cf5 82be d8fb 09be 4975 7c3e
00000060: b9c4 993d 581a 723c 2d4c 0f3e 6e18 d7bd
00000070: d810 39bc 290b e3bb e61a 9abd 9006 80bd
00000080: be56 013e 9a69 2e3e 6313 923c 2b0f 573d
00000090: 095b da3d 579b 05be e225 7d3e fb85 713e
000000a0: 765c 1dbe 7f51 81be 5fe1 a83e 9900 033e
000000b0: f478 ae3d 316a 9abd ed80 4c3e a6ff 9e3e
000000c0: 5683 763e 4263 19bd ab2d 213e 8624 a13e
000000d0: b7d7 5f3d 910e 7c3d a623 35bd 1cc7 52bd
000000e0: d89f 10be 426c 35bc a021 a03e ed66 c6bc
000000f0: bfa2 583d 4554 88be 2278 d9bd 40cd 983d
00000100: 65f8 ca3d 2ef0 b63e 1b61 0cbd 9843 3d3e
00000110: bb38 933d ea4b 443e b1fc 843e fd31 973e
00000120: e2cb e33d 7659 d83d 3a04 58be 9cd1 5abe
00000130: 804b 9ebd 9284 1fbe 5094 29bc 5b34 693d
00000140: 7b24 663e c42e 1a3d a1d0 423e fd28 2e3e
00000150: 8eb9 0e3e 6551 d03c c22d 343d 15eb b03e
00000160: 3772 db3d 8b3b 16be 8b2b b8bd 87e9 3dbd
00000170: 7bf4 95be f18c 40be 2408 213e 1f18 7b3d
00000180: b077 1abe 9e79 603e 7d16 4c3e 842b 913e
00000190: 50f0 85be 146a 81bd 768b 523d 0bf1 863d
000001a0: d6e3 1bbe 97b9 3fbe 67ad de3b 56bd 743e
000001b0: bf92 3fbd 3c4a 7ebd b83c c33e 4672 b33e
000001c0: 0b11 943e 4af0 1a3e 2203 05bd 9617 ae3e
000001d0: 0577 4bbe 5176 08be cc71 b4bd b322 c63d
000001e0: ece6 fbbd 01ba 2b3e 9c7b 9abd ab7d 4cbd
000001f0: 55d2 0ebe 277f 8ebe 0e1c 613e 2ca5 3f3d
00000200: 7ab3 233d 5b5a 823d 077e 733e bd3f 0bbe
00000210: e887 253e 79fe c33a 0b96 a13e ffbb cabd
00000220: 8aa1 5c3e 26b9 afbe 9486 bc3e 4499 b53c
00000230: 2f62 e2bb fd79 0dbd fae2 a9bd 46a3 0a3e
00000240: 314a 313e daba 423e eebb eb3d 8683 0b3e
00000250: b5cb 51be ee77 e63c 4e1d a13e 186b 993e
00000260: eb3c aa3e 83ae a9be bc7e 283d aa4d a93e
00000270: 851d aabe 7a06 323e 2fe4 6fbe 2cb9 65bd
00000280: b902 723e 476d 4dbd 4e92 b23d 77bd 9d3e
00000290: eae2 2e3e a931 e63d ce70 863d 4fe7 8bbd
000002a0: c479 b73e 826e 2fbe 1831 5b3c 4c51 343e
000002b0: b4ae 96be 7caf 8d3d 02c1 2e3e 0d52 aebd
000002c0: 6e1d cfbd 17e8 8a3d fa0f 423e c00a a93d
000002d0: 6571 8ebe 3243 b4bd 24cc 1abe 9290 b9bd
000002e0: 866e a4bc 9c44 833d b375 9e3e 8ffe cf3c
000002f0: 83e1 9cbd bd64 11bd be34 243e c519 2abd
00000300: 092b 8b3e 9799 943e a42c f93d 8aa7 b03d
00000310: 87c1 703e e98c 9b3d 0e64 72bb f00a c43e
00000320: d990 453e 36d9 92be 6f1e 8b3e effa 82bd
00000330: ca81 bc3d a4d6 5abe 4d1f 4c3d 12e5 553e
00000340: 6cde af3d 3574 ad3e fc2d 143d ac9a 103d
00000350: 5cb3 babe 7c2a aebd b76a b1bb 7b97 063e
00000360: 0ca9 0cbd 4240 2a3d 7fcd 8a3e fc11 2b3e
00000370: 83e7 10be 8a5f 88be 4450 91bd 02e7 8d3e
00000380: 2d31 d9bc 7256 593e 474b 303e c6f4 b93b
00000390: 8918 a6bc c467 603d 9ce4 1f3e e957 d23c
000003a0: 60f4 e0bd 4299 0ebd dfbb 4cbd bfa5 54bc
000003b0: f26f 0ebe 9c6c 72be b00b 5e3e a4f4 833d
000003c0: b46c b03d 9296 423d d011 b3bd d15e b93e
000003d0: 2de5 d43c 5c0b 973d 08bc db3d c249 a13d
000003e0: a990 f1bd 0245 55be 8ba9 973e a96b 04be
000003f0: 56a1 69be 6153 9c3d 9c33 1b3e a793 613e

rnn_encoder.bias_ih_l0 f4 [64]
-0.032941807 0.2611637 0.26279032 0.19699693 -0.10500756 -0.08119921 0.31760696 0.10941062
-0.16447021 0.06684751 0.0539248 0.07273917 0.23572268 0.189166 -0.035813652 0.122840084
-0.0076709134 0.23013061 0.2512605 0.265283 0.35012496 0.22871007 -0.12224182 0.20649755
-0.07895606 0.13838892 0.119493246 0.34133443 -0.03286448 -0.14015143 0.0984445 0.17202488
0.25473282 0.22450644 0.29674113 0.18383095 -0.19702846 -0.19435167 -0.009375933 0.16246179
-0.039808277 -0.049001947 0.2515862 0.25072017 -0.37239727 0.09564743 -0.10567126 0.086525604
0.4140601 0.25552958 0.1156827 0.32117695 -0.033201925 0.35406706 0.40165886 0.17993253
0.23082355 0.10466579 0.017447574 0.07578066 0.17829724 -0.032426737 0.04201906 0.22342137
00000000: fded 06bd 40b7 853e 748c 863e 90b9 493e
00000010: 340e d7bd c54b a6bd 619d a23e ad12 e03d
00000020: e16a 28be 59e7 883d 40e0 5c3d 46f8 943d
00000030: 4961 713e bbb4 413e 56b1 12bd 9593 fb3d
00000040: 495c fbbb 5ca7 6b3e 37a5 803e 2cd3 873e
00000050: 9443 b33e f932 6a3e eb59 fabd 1874 533e
00000060: b7b3 a1bd d3b5 0d3e e0b8 f43d 63c3 ae3e
00000070: e89c 06bd db83 0fbe 459d c93d 4a27 303e
00000080: 576c 823e 04e5 653e 74ee 973e 2e3e 3c3e
00000090: d4c1 49be 2004 47be 839d 19bc 625c 263e
000000a0: 010e 23bd 44b6 48bd e8cf 803e 655e 803e
000000b0: dbaa bebe cde2 c33d 2c6a d8bd 5634 b13d
000000c0: afff d33e c6d4 823e 0deb ec3d 4e71 a43e
000000d0: befe 07bd 4748 b53e 3ba6 cd3e 3c40 383e
000000e0: 025d 6c3e 055b d63d 37ee 8e3c e432 9b3d
000000f0: 8d93 363e e6d1 04bd 2e1c 2c3d 92c8 643e

rnn_encoder.bias_hh_l0 f4 [64]
-0.06644109 -0.08116717 0.11687653 -0.007921125 0.31678316 0.012677921 -0.025362765 0.06875986
-0.11951982 0.22654164 0.3287386 -0.07520967 0.03816047 0.32628632 -0.02536743 0.19329007
-0.08746906 -0.16148776 0.12784587 -0.014618912 0.25823566 0.02858479 0.13004419 0.012895508
0.19532387 0.336633 0.07923859 -0.060923297 -0.1058883 0.3443545 0.27083352 0.23498525
0.1141581 0.1472523 0.19298404 0.2269816 0.030768951 -0.106041126 0.34267914 0.26902756
0.12639739 -0.24661408 0.10670861 0.2332815 0.032386564 -0.2107769 -0.00081591035 0.20619813
0.28003705 0.35811362 0.31637985 0.2532413 0.26773664 -0.0763277 0.06687536 0.21774453
0.015763123 -0.05571372 0.34440655 0.27388504 -0.006841865 0.18693984 0.3913031 0.34000316
00000000: 4412 88bd f93a a6bd f65c ef3d 9bc7 01bc
00000010: 6731 a23e 0eb7 4f3c 93c5 cfbc f8d1 8c3d
00000020: cfc6 f4bd 88fa 673e 6d50 a83e 8707 9abd
00000030: 274e 1c3d 000f a73e 5bcf cfbc d5ed 453e
00000040: fb22 b3bd 0c5d 25be 07ea 023e 2984 6fbc
00000050: 7737 843e a62a ea3c 4e2a 053e ae47 533c
00000060: fb02 483e 295b ac3e d847 a23d b58a 79bd
00000070: f7db d8bd 3c4f b03e b1aa 8a3e f99f 703e
00000080: b9cb e93d 4fc9 163e 9c9d 453e dd6d 683e
00000090: 2b0f fc3c 172c d9bd a473 af3e fbbd 893e
000000a0: 516e 013e 6788 7cbe 0b8a da3d 58e1 6e3e
000000b0: c6a7 043d e6d5 57be d1e2 55ba 9a25 533e
000000c0: 0461 8f3e ab5a b73e 8afc a13e d8a8 813e
000000d0: c714 893e b251 9cbd f3f5 883d 6cf8 5e3e
000000e0: aa21 813c 1234 64bd 0e56 b03e a93a 8c3e
000000f0: b931 e0bb 286d 3f3e e158 c83e e514 ae3e

rnn_decoder.weight_ih_l0 f4 [64, 1]
0.3257372 -0.13719273 0.21492893 -0.45654535 -0.010269701 -0.14975642 -0.1850779 0.24797662
0.30851334 0.032884616 -0.1510051 0.09792704 -0.22481872 -0.288362 0.37493327 0.23947242
0.25644583 -0.14575635 0.32898623 -0.36214632 -0.1670801 -0.21017925 -0.19239394 -0.06777373
0.2299157 0.029545452 0.019634131 -0.019417739 -0.26022407 -0.39986953 0.37068105 0.27048376
-0.12942679 -0.3100307 0.39764652 0.27340034 0.08813766 -0.04612181 0.30993313 0.15910429
0.0983138 -0.22316839 0.29338843 0.30242845 0.26192644 0.20636474 0.030174987 -0.3258187
0.38788745 -0.062409632 0.40705225 -0.083398074 -0.25657585 -0.20182613 -0.3220337 0.15171964
0.36633405 0.34229526 -0.21929197 0.061262246 -0.36298144 -0.4261198 0.3921927 -0.0077882353
00000000: 07c7 a63e 407c 0cbe 5416 5c3e 50c0 e9be
00000010: 3f42 28bc bf59 19be 1085 3dbe 95ed 7d3e
00000020: 76f5 9d3e 05b2 063d 15a1 1abe f98d c83d
00000030: e136 66be 2fa4 93be 41f7 bf3e 4238 753e
00000040: de4c 833e 2741 15be e270 a83e 3e6b b9be
00000050: 0c17 2bbe 3b39 57be eb02 45be f4cc 8abd
00000060: 056f 6b3e 4e09 f23c c2d7 a03c f311 9fbc
00000070: 173c 85be b3bb ccbe e8c9 bd3e d97c 8a3e
00000080: 7588 04be 58bc 9ebe 5398 cb3e 21fb 8b3e
00000090: 8481 b43d 39ea 3cbd 8eaf 9e3e 3cec 223e
000000a0: bf58 c93d 4186 64be 0237 963e e7d7 9a3e
000000b0: 391b 863e 4751 533e 8931 f73c b5d1 a6be
000000c0: 2f99 c63e 3ea1 7fbd 2769 d03e 9ccc aabd
000000d0: e95d 83be 82ab 4ebe 9ae1 a4be 655c 1b3e
000000e0: 2390 bb3e 5341 af3e 138e 60be 1fee 7a3d
000000f0: b4d8 b9be 602c dabe 7bcd c83e 7434 ffbb

rnn_decoder.weight_hh_l0 f4 [64, 16]
0.15365677 -0.21710752 0.15765633 0.20899446 0.22168979 0.024405722 0.14792185 0.20807485
0.08101493 -0.03054614 0.28739733 0.16526905 0.47523144 0.23523572 0.102195926 0.12449398
-0.19097894 -0.035262946 0.35397655 -0.28003758 0.10498241 -0.17140034 -0.08237226 0.2819108
0.18049623 -0.0171761 -0.26182655 0.20155543 -0.20167227 -0.0046375054 0.056511432 -0.28392372
0.05150006 0.02026208 0.102234684 -0.17938727 0.27734503 -0.037645124 -0.15046729 -0.033943053
-0.049037635 -0.15147293 -0.20135452 0.31647673 -0.1065547 -0.031486426 -0.062625654 -0.28695711
0.18130395 -0.21065897 -0.006588048 -0.016705181 -0.24035421 0.11602353 -0.19656757 0.2875544
0.21702522 -0.2113387 -0.46602476 0.18754393 -0.10963029 0.15169388 -0.07070879 -0.1444448
0.010523849 -0.3086256 -0.06085517 0.13471168 0.15797535 0.07394333 0.046987236 0.0523856
-0.11907788 -0.10799432 0.40385634 0.05722573 0.07936517 0.42935714 0.113520004 -0.008530878
0.27462032 0.036956053 0.11835175 0.17648025 0.15148379 -0.1228891 0.2287994 0.23530678
0.41784233 -0.18732616 -0.21209663 0.12588902 -0.09941688 0.07265381 0.4124635 0.06503878
0.3460929 -0.111074395 0.070195235 0.07720475 0.2889656 -0.06383681 -0.19194947 0.34494007
0.16810082 -0.491448 -0.25370365 0.4267231 0.184796 -0.2607447 0.15047884 -0.14238966
-0.15843906 0.17873089 -0.19105572 0.025765188 0.105733916 -0.2031964 -0.20856892 0.13019496
-0.004032922 -0.16625111 -0.47463846 -0.17937699 -0.27600494 -0.4191733 0.2630321 -0.10768093
-0.26975414 -0.04225568 0.24770868 0.3139998 0.0840311 -0.30620894 -0.14188261 0.113374405
0.08164232 -0.0363231 0.13908936 -0.1291761 0.2458134 -0.12500514 0.16411501 -0.019165177
0.038017105 -0.15133856 0.11996231 0.45762995 0.41394934 0.25992432 0.0047535715 0.031066615
0.2765999 -0.14863198 0.2655615 0.14482975 0.5502923 0.1158223 0.2761208 -0.2615604
0.33673275 -0.004985924 0.21210413 -0.45681918 -0.16111372 -0.08460865 -0.1875035 0.37609348
0.049193475 -0.21879868 -0.1803581 0.27174413 -0.022657713 -0.34067202 0.13363847 -0.0048594223
0.1264919 -0.38555315 0.09026632 -0.30132383 0.4740319 -0.1967552 -0.1255116 0.50563663
-0.07135268 -0.3187155 -0.08461196 0.12618361 0.017545339 -0.36491105 0.08920483 -0.10877134
0.33858305 -0.14304328 0.33281177 -0.28937602 -0.087492965 -0.34406298 -0.29409948 0.15229584
0.06458021 0.046707127 -0.022208361 -0.07288113 -0.051051702 -0.107418455 0.02750299 -0.28394848
0.05392787 0.09403707 0.2578466 0.04041669 -0.032178737 -0.05660443 -0.08628282 0.13451962
0.22957368 -0.45857713 -0.23429257 0.10732862 -0.14375764 -0.2230114 0.185141 -0.23797573
-0.06180036 -0.22496636 0.07937473 0.39622346 0.50946915 0.0961977 -0.039053697 0.26661265
-0.1484118 0.05726923 0.23286915 0.015431325 0.34757578 0.3028655 0.042275406 -0.18664354
-0.023783347 -0.034575306 -0.1475931 -0.23707433 0.18850838 0.0068874117 -0.23027982 0.39482915
0.28818473 -0.21735163 -0.06792327 0.015753895 -0.16864976 -0.3540278 0.09551006 0.040322967
00000000: 3358 1d3e 6f51 5ebe a970 213e a502 563e
00000010: a602 633e 82ee c73c d378 173e 9311 553e
00000020: 28eb a53d e63b fabc be25 933e 4a3c 293e
00000030: 8951 f33e a2e1 703e 194c d13d b3f6 fe3d
00000040: fc8f 43be e16f 10bd 6a3c b53e 1661 8fbe
00000050: 0501 d73d 9283 2fbe cab2 a8bd 9d56 903e
00000060: 01d4 383e e4b4 8cbc 210e 86be 8c64 4e3e
00000070: 2d83 4ebe 37f6 97bb 8878 673d 735e 91be
00000080: baf1 523d a9fc a53c 6b60 d13d 4cb1 37be
00000090: 2b00 8e3e c631 1abd 1914 1abe df07 0bbd
000000a0: b0db 48bd b81b 1bbe e12f 4ebe 3d09 a23e
000000b0: 5a39 dabd e9f7 00bd e141 80bd 0bec 92be
000000c0: bea7 393e fcb6 57be 8de0 d7bb 4ed9 88bc
000000d0: 6a1f 76be bf9d ed3d 0249 49be 553a 933e
000000e0: dc3b 5e3e 2c69 58be cc9a eebe 840b 403e
000000f0: d885 e0bd a455 1b3e c5cf 90bd 56e9 13be
00000100: 396c 2c3c 2d04 9ebe 4543 79bd dcf1 093e
00000110: 4ac4 213e 9a6f 973d b075 403d 4892 563d
00000120: 1bdf f3bd 202c ddbd 42c6 ce3e 8765 6a3d
00000130: 358a a23d b3d4 db3e 2d7d e83d 19c5 0bbc
00000140: 099b 8c3e 3b5f 173d 6762 f23d 3db7 343e
00000150: 911e 1b3e 48ad fbbd 644a 6a3e 43f4 703e
00000160: 6eef d53e 6ed2 3fbe dc2f 59be 0de9 003e
00000170: 149b cbbd 85cb 943d 6a2e d33e 0d33 853d
00000180: 1733 b13e f97a e3bd 85c2 8f3d 861d 9e3d
00000190: 4df3 933e e0bc 82bd 678e 44be fc9b b03e
000001a0: 9f22 2c3e 129f fbbe 72e5 81be 737b da3e
000001b0: 2a3b 3d3e 5480 85be 2017 1a3e 98ce 11be
000001c0: d93d 22be 3b05 373e 1ca4 43be 8411 d33c
000001d0: 068b d83d b812 50be 1793 55be d451 053e
000001e0: 9a26 84bb bb3d 2abe d003 f3be 9aae 37be
000001f0: 8550 8dbe e29d d6be 25ac 863e d287 dcbd
00000200: 371d 8abe 4b14 2dbd 58a7 7d3e 95c4 a03e
00000210: 7f18 ac3d 6bc7 9cbe ad49 11be d730 e83d
00000220: 1734 a73d 88c7 14bd 716d 0e3e bd46 04be
00000230: 82b6 7b3e 5901 00be c40d 283e 4a00 9dbc
00000240: d3b7 1b3d 7ff8 1abe cdae f53d 794e ea3e
00000250: 2bf1 d33e cd14 853e d9c3 9b3b 6a7f fe3c
00000260: 819e 8d3e fb32 18be adf7 873e 404e 143e
00000270: f5df 0c3f 3e34 ed3d b55f 8d3e 3feb 85be
00000280: 3c68 ac3e f660 a3bb d331 593e 34e4 e9be
00000290: fffa 24be 4d47 adbd eb00 40be 538f c03e
000002a0: 197f 493d c30c 60be cbaf 38be 0c22 8b3e
000002b0: ab9c b9bc 906c aebe 86d8 083e ca3b 9fbb
000002c0: 1887 013e 3967 c5be 8cdd b83d 1e47 9abe
000002d0: 4fb4 f23e 327a 49be 1d86 00be 6771 013f
000002e0: 5b21 92bd ae2e a3be 0949 adbd 4736 013e
000002f0: 3ebb 8f3c 9fd5 babe 06b1 b63d 82c3 debd
00000300: c25a ad3e f079 12be 4e66 aa3e 1829 94be
00000310: 832f b3bd 0629 b0be 3594 96be 71f3 1b3e
00000320: a142 843d f94f 3f3d 4fee b5bc b442 95bd
00000330: 971b 51bd 35fe dbbd f34d e13c b261 91be
00000340: 78e3 5c3d 8296 c03d 7804 843e f98b 253d
00000350: dacd 03bd 0cda 67bd 0cb5 b0bd 83bf 093e
00000360: 5d15 6b3e 9fca eabe 64ea 6fbe 1ccf db3d
00000370: 3435 13be 1a5d 64be 9a95 3d3e e9af 73be
00000380: 6022 7dbd 955d 66be 388f a23d cddd ca3e
00000390: 926c 023f 4d03 c53d c5f6 1fbd 7481 883e
000003a0: 43f9 17be 2493 6a3d 4075 6e3e abd3 7c3c
000003b0: 74f5 b13e 3011 9b3e fa28 2d3d 7c1f 3fbe
000003c0: 4bd5 c2bc d69e 0dbd a522 17be 9dc3 72be
000003d0: 5708 413e ccaf e13b 79ce 6bbe 0c27 ca3e
000003e0: f38c 933e 6d91 5ebe 5b1b 8bbd 500e 813c
000003f0: 86b2 2cbe 2243 b5be c79a c33d b229 253d

rnn_decoder.bias_ih_l0 f4 [64]
-0.00592312 0.25250474 0.32545164 0.114409335 -0.08715977 -0.11590722 -0.01738923 0.30305904
-0.09287792 0.017452618 0.1989202 0.37315243 -0.11246229 0.20270744 0.12210267 0.38150445
-0.052113052 0.20285869 0.030642375 0.24546652 -0.120190956 -0.07421231 -0.017082497 -0.0458918
0.116455235 0.22714505 -0.12292379 -0.15050928 0.060929842 0.09772013 -0.0039228234 0.24998666
0.17972806 -0.04338185 0.06704307 -0.0757988 -0.22236384 -0.020249862 0.0024027063 0.10271015
0.25230882 -0.16273913 0.043056034 0.20517553 0.044925075 -0.12944692 0.12831682 -0.20373705
0.07021232 0.3829375 0.36522472 0.16921346 0.16020991 0.061980452 0.15050161 0.161665
-0.036126412 0.25204304 0.18740103 0.18743159 0.07340302 0.0040002004 0.14327727 0.2546437
00000000: bb16 c2bb 4d48 813e 99a1 a63e 714f ea3d
00000010: d280 b2bd c460 edbd dc73 8ebc 8e2a 9b3e
00000020: c736 bebd cbf8 8e3c bdb1 4b3e d60d bf3e
00000030: a152 e6bd 8a92 4f3e f710 fa3d 8d54 c33e
00000040: 7f74 55bd 30ba 4f3e b805 fb3c 935b 7b3e
00000050: ad26 f6bd a0fc 97bd 98f0 8bbc 0af9 3bbd
00000060: 1580 ee3d b698 683e 78bf fbbd 1b1f 1abe
00000070: 9291 793d 7e21 c83d 078b 80bb 81fc 7f3e
00000080: a20a 383e 2bb1 31bd e14d 893d 673c 9bbd
00000090: 59b3 63be 0ae3 a5bc b976 1d3b b359 d23d
000000a0: 9f2e 813e 16a5 26be 865b 303d 8919 523e
000000b0: 5b03 383d bc8d 04be 7c65 033e 72a0 50be
000000c0: 7acb 8f3d 6210 c43e bcfe ba3e 4b46 2d3e
000000d0: 110e 243e 37df 7d3d 181d 1a3e 828b 253e
000000e0: 4af9 13bd c90b 813e 0ee6 3f3e 11ee 3f3e
000000f0: 5354 963d 1d14 833b 47b7 123e a960 823e

rnn_decoder.bias_hh_l0 f4 [64]
0.2562445 -0.096013606 -0.057712562 0.11822926 0.27898034 0.09343055 0.241318 0.13726187
0.09495042 0.29480338 0.25139213 0.09230475 -0.04349576 -0.041252576 0.031079993 0.14642133
0.16600026 -0.14525995 0.22968835 -0.117326334 -0.074251905 0.061009537 0.07801018 -0.12270149
-0.120642036 0.059100527 0.19759771 -0.08890024 0.13500331 0.046275556 -0.15924622 0.06926029
0.014372345 0.18740016 0.19548002 0.12537849 0.094291605 -0.31594917 -0.072503634 0.10039041
0.15519238 -0.12543121 0.23643127 -0.052168168 -0.21449177 0.14063527 0.30793378 0.0694112
-0.04965916 0.19270636 -0.03631256 0.32729208 0.22651608 0.056664933 0.022477372 0.34244505
-0.09501967 0.020107767 0.21396552 0.1309572 0.17789835 0.3837051 0.079707555 0.09866392
00000000: 7b32 833e c8a2 c4bd 0264 6cbd 2f22 f23d
00000010: 83d6 8e3e 8458 bf3d 111c 773e 608e 0c3e
00000020: 5e75 c23d 78f0 963e 78b6 803e 460a bd3d
00000030: 9c28 32bd 76f8 28bd 789b fe3c 79ef 153e
00000040: f9fb 293e 06bf 14be 6c33 6b3e ca48 f0bd
00000050: 6211 98bd 23e5 793d cdc3 9f3d eb4a fbbd
00000060: 2c13 f7bd 6513 723d 0e57 4a3e 5411 b6bd
00000070: 4f3e 0a3e 708b 3d3d 7111 23be 57d8 8d3d
00000080: fc79 6b3c d4e5 3f3e ea2b 483e 3863 003e
00000090: f51b c13d 17c4 a1be c97c 94bd 7d99 cd3d
000000a0: c0ea 1e3e 0a71 00be 0a1b 723e 4aae 55bd
000000b0: bba3 5bbe b102 103e 7fa9 9d3e 7627 8e3d
000000c0: 6767 4bbd d154 453e 7bbc 14bd d492 a73e
000000d0: d5f3 673e 7d19 683d 7722 b83c f554 af3e
000000e0: ac99 c2bd 0bb9 a43c c719 5b3e a519 063e
000000f0: fc2a 363e ff74 c43e b73d a33d 4f10 ca3d

fc1.weight f4 [3, 16]
-0.106248334 -0.23882325 -0.16919044 -0.34640205 -0.007525464 0.34594905 -0.43208367 -0.40711844
-0.46637988 0.44615752 -0.4416564 -0.3470139 0.32726088 0.41290453 -0.08655686 -0.4409787
0.450923 0.15474023 0.26595527 0.17345044 -0.45575646 -0.21107207 0.10178265 0.52426285
0.35000744 -0.3060868 0.12928283 0.21196271 -0.40282518 -0.42772126 0.2846577 0.3291111
-0.09959005 -0.24237671 -0.3040156 -0.37145343 0.24252447 0.39366066 -0.5001095 -0.50521797
-0.13102461 0.12744749 -0.34460542 -0.5991108 0.08664767 0.086802356 -0.4515444 -0.49654728
00000000: ba98 d9bd 158e 74be 4240 2dbe 9c5b b1be
00000010: 2b98 f6bb 3c20 b13e 123a ddbe d471 d0be
00000020: 58c9 eebe c26e e43e ca20 e2be ceab b1be
00000030: bd8e a73e 3968 d33e b944 b1bd f6c7 e1be
00000040: 61df e63e 3974 1e3e 4a2b 883e fe9c 313e
00000050: e958 e9be 4723 58be 6c73 d03d 1736 063f
00000060: 2d34 b33e 69b7 9cbe b862 043e c10c 593e
00000070: 1a3f cebe 48fe dabe a7be 913e 4081 a83e
00000080: def5 cbbd 9a31 78be efa7 9bbe 252f bebe
00000090: 5658 783e e48d c93e 2d07 00bf f755 01bf
000000a0: 512b 06be 9881 023e 1f70 b0be 535f 19bf
000000b0: 5574 b13d 6fc5 b13d d430 e7be 723b febe

fc1.bias f4 [3]
-0.32360518 0.40756604 -0.344232
00000000: 94af a5be 7fac d03e 2d3f b0be

fc2.weight f4 [1, 16]
0.15994744 -0.3891109 0.18741195 0.17606607 -0.2031593 -0.047234386 0.44248885 0.04790898
0.41530842 -0.18947971 0.09121618 0.37744617 0.36706865 0.45085698 0.31804544 -0.4030788
00000000: 43c9 233e 8b39 c7be ebe8 3f3e aa4a 343e
00000010: fe08 50be d878 41bd e68d e23e 353c 443d
00000020: 4ea3 d43e f806 42be 8ccf ba3d a040 c13e
00000030: 6cf0 bb3e bad6 e63e dad6 a23e 5860 cebe

fc_to_rnn1.weight f4 [16, 3]
0.013681832 -0.12508896 0.17387167 -0.13762255 -0.3454531 -0.29755113 -0.3634528 -0.019491335
-0.41852388 -0.07101739 0.006913296 0.37840828 -0.2826871 0.7898513 -0.17674159 -0.3464296
0.27855894 -0.19352643 0.29411504 -0.20231907 -0.4057503 -0.0008352478 0.039281182 0.10935735
-0.11011919 -0.28023624 -0.51389146 -0.2999938 -0.18727736 0.30614004 0.22288951 -0.29715633
0.110205956 -0.13382858 0.09668316 -0.6634511 -0.25783274 -0.32423332 -0.058288272 -0.3470013
-0.08075005 -0.2171961 -0.045815364 -0.45762742 0.4729743 -0.33847252 0.016540626 0.42798862
00000000: c329 603c 5217 00be 6a0b 323e edec 0cbe
00000010: 3bdf b0be 9f58 98be 7c16 babe 4bac 9fbc
00000020: c348 d6be 9171 91bd ee88 e23b bbbe c13e
00000030: 5dbc 90be b233 4a3f bffb 34be 385f b1be
00000040: 479f 8e3e cb2b 46be 3f96 963e bb2c 4fbe
00000050: 81be cfbe 88f4 5aba 4ee5 203d bff6 df3d
00000060: 2b86 e1bd 207b 8fbe 648e 03bf ca98 99be
00000070: a3c5 3fbe 63be 9c3e 263d 643e e024 98be
00000080: a9b3 e13d 5c0a 09be d201 c63d eed7 29bf
00000090: a702 84be e901 a6be afbf 6ebd 28aa b1be
000000a0: 4860 a5bd a868 5ebe e4a8 3bbd 244e eabe
000000b0: b029 f23e 454c adbe 3580 873c 5321 db3e

fc_to_rnn1.bias f4 [16]
0.41892412 -0.39879924 0.16230077 -0.34777808 0.29451993 0.28740475 -0.3707462 0.7379565
-0.46240747 -0.22801545 0.046141878 -0.091802076 0.23018517 -0.62297213 -0.17661676 -0.22133042
00000000: 397d d63e 6a2f ccbe 2c32 263e f80f b2be
00000010: 51cb 963e b726 933e 72d2 bdbe b8ea 3c3f
00000020: acc0 ecbe e27c 69be 44ff 3c3d ba02 bcbd
00000030: a9b5 6b3e 1a7b 1fbf 06db 34be 71a4 62be

fc_to_rnn2.weight f4 [16, 3]
-0.4188782 -0.4514211 -0.40868562 -0.34846097 0.18995188 -0.07927061 0.3628738 0.44245198
-0.44737273 0.11163609 0.31581867 -0.4671767 -0.16669236 0.41946796 -0.42659244 0.5158477
0.04963634 0.10505134 0.48190683 -0.53931785 0.49256176 -0.51538765 0.27423203 -0.025373627
0.45307574 -0.0072904113 -0.56666505 0.07466736 0.38578504 -0.11418373 -0.5455597 -0.08147977
0.045544114 0.14240019 0.18483223 -0.076804936 -0.030227203 -0.121257275 0.22139806 0.13205731
0.2338863 -0.05273872 -0.053756993 0.42442912 0.07236996 -0.5278281 0.11672408 0.53409976
00000000: 3477 d6be ab20 e7be 3e3f d1be 7a69 b2be
00000010: bf82 423e a158 a2bd 98ca b93e 1189 e23e
00000020: 0a0e e5be 76a1 e43d fcb2 a13e c931 efbe
00000030: 67b1 2abe 81c4 d63e 536a dabe 980e 043f
00000040: 7a4f 4b3d 2825 d73d 7ebc f63e bc10 0abf
00000050: 0e31 fc3e 72f0 03bf 2468 8c3e 5adc cfbc
00000060: 8bf9 e73e 67e4 eebb f610 11bf 33eb 983d
00000070: 9e85 c53e 29d9 e9bd cda9 0bbf dede a6bd
00000080: 778c 3a3d 5bd1 113e a944 3d3e e84b 9dbd
00000090: 0a9f f7bc bc55 f8bd 2cb6 623e 083a 073e
000000a0: e47f 6f3e 8e04 58bd 4b30 5cbd c64e d93e
000000b0: b436 943d be1f 07bf 090d ef3d c3ba 083f

fc_to_rnn2.bias f4 [16]
-0.11192598 0.34723175 -0.41561043 -0.08828483 0.38602242 -0.28868195 -0.14723182 0.0049214372
-0.087281145 -0.16225326 0.39833495 -0.10541949 -0.15625918 0.43286616 0.12859407 -0.27281168
00000000: 7339 e5bd 5cc8 b13e e4ca d4be adce b4bd
00000010: bba4 c53e 1fce 93be f0c3 16be 0244 a13b
00000020: 75c0 b2bd b825 26be 8ff2 cb3e 2ce6 d7bd
00000030: 6802 20be a2a0 dd3e 2aae 033e f9ad 8bbe
